mlruns/0/7d84f5ff81274e628fc8455f20e4977d/artifacts/model/data/model.pth (torch, 4492 bytes, 2 tensors)

weight f4 [2, 256]
000000 bb 80 c2 3d fb e5 26 be 36 b1 a9 3d 77 d5 07 3d
       0.0949721 -0.16298668 0.082857534 0.03316256
000010 6f 30 31 bd af 52 57 be ec 82 fd 3d e3 d0 22 3e
       -0.04325908 -0.21027635 0.12378487 0.15899996
000020 a6 b9 3c be 85 eb dd bc 65 b8 07 3d 69 b1 39 3d
       -0.18430194 -0.027089844 0.033134837 0.045335207
000030 6f 6a 0d 3e 0e 38 00 be 10 a3 8f 3c 52 b9 e3 bd
       0.13810132 -0.12521383 0.017533809 -0.111193314
000040 48 50 d9 bc 20 47 99 3d 65 6e 3a 3f 7b 38 23 be
       -0.026527539 0.07484269 0.728247 -0.15939514
000050 d4 90 3b bd 68 a3 ca bc 35 be 47 bd b0 9d 04 3e
       -0.045792416 -0.024736121 -0.04876538 0.12950778
000060 e6 51 aa 3c 01 26 68 be d6 17 a9 3d fc 9c 14 3d
       0.020791005 -0.22670747 0.082564995 0.036282524
000070 65 bc 92 b9 03 95 71 bc 42 1b 45 3e a3 69 ea bc
       -0.00027987655 -0.014745 0.1924868 -0.028614825
000080 5f 82 87 3d 2e 10 60 bd ee f3 9f bd 16 92 ac 3c
       0.06616663 -0.05470293 -0.07810198 0.021065753
000090 68 6d d4 3c d1 6d d6 3d c3 ab 8b bd 5b cc 86 bc
       0.025931075 0.104701646 -0.0681987 -0.016454866
0000a0 6b a0 9b bd a6 49 9b bc 64 35 75 3d 42 9f 20 3e
       -0.07598957 -0.018956017 0.05986537 0.15685752
0000b0 0e 1c d1 bd 57 ac 84 bc f0 99 c2 3d 74 18 31 bd
       -0.10210429 -0.01619546 0.095020175 -0.04323621
0000c0 ed 90 bf 3c 3a a7 20 bc 02 c3 24 be f1 69 42 be
       0.023384536 -0.009805495 -0.16090015 -0.18985726
0000d0 fa 1a 0f 3d 26 16 18 3e 22 3a c0 3e e3 97 1f 3e
       0.034937836 0.14852199 0.37544352 0.15585284
0000e0 1b fc 87 bd ba c6 0b bc 94 4a c6 3c f5 75 f7 3c
       -0.06639882 -0.008531267 0.024205483 0.030207613
0000f0 d2 90 68 bf 56 95 8e bd 48 2f fe bb f2 e2 ed bd
       -0.9084598 -0.06962077 -0.007757101 -0.11615552
000100 7f 32 d5 bd 94 1e c9 bc ed 69 ab bd 04 e9 a4 be
       -0.10410022 -0.024550714 -0.08369813 -0.32209027
000110 b6 fb 11 3e 8b 02 29 3e 9c dc 06 be 9b a7 2a 3e
       0.14256176 0.16504876 -0.13170093 0.16665499
000120 44 06 9a bb dc e9 88 b9 fb 58 21 bd ae 3f 44 ba
       -0.004700454 -0.0002611418 -0.0393915 -0.00074862957
000130 0a 21 10 3f 93 98 24 bd d9 20 94 bd 80 3d 60 3e
       0.56300414 -0.04018457 -0.07232828 0.2189846
000140 e9 2f 63 bc 9f 9a 8d 3d da e6 60 3d 7e 1a 71 bd
       -0.013866403 0.06914257 0.054907657 -0.058863156
000150 db 3d 05 be ce 5b a8 bc 0e 96 a8 bd aa c1 0c 3e
       -0.13011877 -0.020551588 -0.08231746 0.13745752
000160 ac a3 7f bd 58 d1 39 bd f5 71 0e 3f 38 f8 84 bd
       -0.06241195 -0.04536566 0.55642635 -0.064926565
000170 1e 5b 06 bd 76 41 be 3d 05 c7 5b 3d d8 b1 99 3d
       -0.03280174 0.092898294 0.053656597 0.07504624
000180 fc 2b 81 3c 9f cb aa 3d 69 5b 16 3e 7b 0c d7 3c
       0.015768044 0.08339619 0.14683308 0.026251068
000190 fa dc 93 be e4 41 d0 3d 86 fe 54 3e cb d3 01 be
       -0.2887953 0.10168818 0.20800218 -0.12678449
0001a0 33 f1 54 bd 56 eb ca 3e eb 97 c1 bd 53 a3 0b be
       -0.051987838 0.39632672 -0.09452804 -0.13636522
0001b0 bc 4e 0c be 7d 93 06 3d e4 36 00 bd bf 4e 9e bd
       -0.1370191 0.0328555 -0.031302348 -0.077298634
0001c0 e0 81 9b bd 20 1a 53 3d 75 86 32 be 0f a5 73 bd
       -0.07593131 0.051538587 -0.17434104 -0.059483584
0001d0 d4 4b 0a be eb 0d 74 bd ea e5 17 bd ca fb fb bd
       -0.13505489 -0.059583586 -0.037084498 -0.12303884
0001e0 c5 5a 4d bc c8 42 3c be 05 15 26 be fb 68 bb 3d
       -0.012533848 -0.1838485 -0.16218956 0.09150883
0001f0 c1 84 64 bc b5 1a 97 bd 75 ea 1c 3d 0e 57 55 bc
       -0.013947667 -0.07378141 0.038309533 -0.013021244
000200 47 e7 21 3e d9 2a 96 bd 14 20 1f 3d 33 b5 b0 3d
       0.15810882 -0.07332391 0.03884895 0.08628311
000210 a8 a4 e8 bd b4 96 e3 3d 9f f7 7b be 7c 0f 35 be
       -0.11359531 0.11112729 -0.24606179 -0.17681688
000220 2b b2 24 3d f7 53 6d be 34 55 2f 3d 48 19 4d be
       0.040208977 -0.23176561 0.042805865 -0.20029175
000230 5d df 85 3e 54 14 e9 bd fb 51 d3 bc f1 e3 a6 3d
       0.26146975 -0.113808304 -0.025795927 0.08148945
000240 3b c5 48 3e 21 9d e3 3c f4 c8 17 3f 7a e8 04 3e
       0.19606487 0.027784886 0.59291005 0.12979308
000250 53 d7 17 3e 99 6d 2e be 91 99 6f bd f5 82 01 3c
       0.14828233 -0.17033996 -0.05849606 0.007904758
000260 4d 87 49 3d 28 6b 2a be d6 ba 2b 3d 66 d3 0c be
       0.0492013 -0.1664244 0.041926228 -0.13752517
000270 70 92 15 3d dd 05 a5 bd 0e 89 ae 3d 96 84 62 3e
       0.036516607 -0.08057759 0.08522235 0.2212089
000280 ce d1 01 3d b1 36 80 bc 24 42 0f 3e be d6 d8 3d
       0.031694226 -0.015651079 0.13990074 0.10587834
000290 93 0d 98 3b 5d 8f 5c be f1 a9 f7 3d cc ab c5 bd
       0.00464029 -0.21539064 0.120929606 -0.09651908
0002a0 ea 55 ff bd b4 e8 73 3e 83 40 4d 3d aa 36 25 3a
       -0.12467559 0.23819238 0.05011035 0.0006302396
0002b0 85 09 8c 3d c5 ae 49 be 1c 03 95 be 60 72 c1 3e
       0.06837753 -0.19695576 -0.29103935 0.37782574
0002c0 54 db 57 3c db c7 fe 3d c3 e7 39 bf 74 d2 95 bd
       0.0131748505 0.12440463 -0.72619265 -0.073155314
0002d0 9d b6 3d 3e d1 e1 67 bd 29 37 e8 bd 82 c0 5b 3d
       0.18526693 -0.05661184 -0.11338646 0.053650387
0002e0 a3 9d 8c 3d 88 65 5c 3c 10 c6 10 be dd 57 f0 be
       0.06866004 0.013451941 -0.14138055 -0.46942034
0002f0 2c 5b dc 3e f1 4b 83 bd 18 27 fb 3d dc 45 7b 3c
       0.4303831 -0.06410969 0.12263316 0.01533648
000300 41 2f 24 bd 2e a7 0e 3e f0 f0 9d 3d 78 7d 1c bc
       -0.040084127 0.13930961 0.07711971 -0.009551398
000310 b0 7f 15 be a4 e2 a7 bd 3e be 0f 3d d5 7a 53 bd
       -0.1459949 -0.08197525 0.03509354 -0.051630814
000320 c0 7c 8b 3d a5 dc ce bd a7 7f 86 be e7 ef 9d 3d
       0.068109035 -0.10100678 -0.26269266 0.07711773
000330 5d dc fa ba 85 63 16 be b4 a1 3e be 29 fa af be
       -0.001913916 -0.14686401 -0.18616372 -0.34370545
000340 3c 4e 6a 3e 56 01 7b 3c 4d 07 36 3d 6e 7a 18 3e
       0.22881407 0.015320143 0.044440556 0.14890453
000350 8b df d0 3e a8 e0 5e 3b da 3d aa 3d 32 9d d5 ba
       0.4079555 0.0034008417 0.083125785 -0.0016297458
000360 69 66 81 bd a5 5a be bd c4 c4 c4 3d 12 55 b0 bc
       -0.06318361 -0.09294633 0.096078426 -0.02152494
000370 76 30 21 be bf c9 f0 3e 0d 06 f4 bd c9 78 07 be
       -0.15741143 0.4702892 -0.119152166 -0.1322967
000380 b6 2d 79 bc 1a d4 5a bd d4 12 28 be 94 70 d5 bd
       -0.015208652 -0.053424932 -0.16413432 -0.10421863
000390 db e3 05 be 4b bc 11 3d 45 94 0e bc 28 6b 90 3d
       -0.13075201 0.03557996 -0.008702342 0.070516884
0003a0 78 92 28 be 27 43 17 3d 8c f8 9a bd f7 dd 7a bd
       -0.16462123 0.036929276 -0.07566938 -0.06124684
0003b0 e0 73 6f 3d d2 19 c0 3b 70 77 00 3e 03 fb d9 3d
       0.058460116 0.005862453 0.12545562 0.1064358
0003c0 2c a8 ee bd d3 24 b6 bd ce 57 c3 be 22 c5 50 3e
       -0.1165317 -0.088937424 -0.38152927 0.203877
0003d0 56 86 56 3e 2e 88 54 3d f9 68 24 3e de dd ed bd
       0.20949683 0.051887684 0.16055669 -0.116145834
0003e0 b0 bd 23 bd 7a c7 42 3d ec 18 29 bd 93 c7 0f bc
       -0.039975822 0.047553517 -0.041283533 -0.00877561
0003f0 40 e0 2d 3e ca 72 9d 3e 19 40 57 be d1 7c 09 3e
       0.16980076 0.3075164 -0.21020545 0.1342652

bias f4 [2]
000000 33 9b 28 3c 7e 66 56 bd
       0.010290909 -0.052343838
