dev_test/classifier.pth (torch, 10000 bytes, 6 tensors)

classifier.0.weight f4 [2, 256]
0.0949721 -0.16298668 0.082857534 0.03316256 -0.04325908 -0.21027635 0.12378487 0.15899996
-0.18430194 -0.027089844 0.033134837 0.045335207 0.13810132 -0.12521383 0.017533809 -0.111193314
-0.026527539 0.07484269 0.728247 -0.15939514 -0.045792416 -0.024736121 -0.04876538 0.12950778
0.020791005 -0.22670747 0.082564995 0.036282524 -0.00027987655 -0.014745 0.1924868 -0.028614825
0.06616663 -0.05470293 -0.07810198 0.021065753 0.025931075 0.104701646 -0.0681987 -0.016454866
-0.07598957 -0.018956017 0.05986537 0.15685752 -0.10210429 -0.01619546 0.095020175 -0.04323621
0.023384536 -0.009805495 -0.16090015 -0.18985726 0.034937836 0.14852199 0.37544352 0.15585284
-0.06639882 -0.008531267 0.024205483 0.030207613 -0.9084598 -0.06962077 -0.007757101 -0.11615552
-0.10410022 -0.024550714 -0.08369813 -0.32209027 0.14256176 0.16504876 -0.13170093 0.16665499
-0.004700454 -0.0002611418 -0.0393915 -0.00074862957 0.56300414 -0.04018457 -0.07232828 0.2189846
-0.013866403 0.06914257 0.054907657 -0.058863156 -0.13011877 -0.020551588 -0.08231746 0.13745752
-0.06241195 -0.04536566 0.55642635 -0.064926565 -0.03280174 0.092898294 0.053656597 0.07504624
0.015768044 0.08339619 0.14683308 0.026251068 -0.2887953 0.10168818 0.20800218 -0.12678449
-0.051987838 0.39632672 -0.09452804 -0.13636522 -0.1370191 0.0328555 -0.031302348 -0.077298634
-0.07593131 0.051538587 -0.17434104 -0.059483584 -0.13505489 -0.059583586 -0.037084498 -0.12303884
-0.012533848 -0.1838485 -0.16218956 0.09150883 -0.013947667 -0.07378141 0.038309533 -0.013021244
0.15810882 -0.07332391 0.03884895 0.08628311 -0.11359531 0.11112729 -0.24606179 -0.17681688
0.040208977 -0.23176561 0.042805865 -0.20029175 0.26146975 -0.113808304 -0.025795927 0.08148945
0.19606487 0.027784886 0.59291005 0.12979308 0.14828233 -0.17033996 -0.05849606 0.007904758
0.0492013 -0.1664244 0.041926228 -0.13752517 0.036516607 -0.08057759 0.08522235 0.2212089
0.031694226 -0.015651079 0.13990074 0.10587834 0.00464029 -0.21539064 0.120929606 -0.09651908
-0.12467559 0.23819238 0.05011035 0.0006302396 0.06837753 -0.19695576 -0.29103935 0.37782574
0.0131748505 0.12440463 -0.72619265 -0.073155314 0.18526693 -0.05661184 -0.11338646 0.053650387
0.06866004 0.013451941 -0.14138055 -0.46942034 0.4303831 -0.06410969 0.12263316 0.01533648
-0.040084127 0.13930961 0.07711971 -0.009551398 -0.1459949 -0.08197525 0.03509354 -0.051630814
0.068109035 -0.10100678 -0.26269266 0.07711773 -0.001913916 -0.14686401 -0.18616372 -0.34370545
0.22881407 0.015320143 0.044440556 0.14890453 0.4079555 0.0034008417 0.083125785 -0.0016297458
-0.06318361 -0.09294633 0.096078426 -0.02152494 -0.15741143 0.4702892 -0.119152166 -0.1322967
-0.015208652 -0.053424932 -0.16413432 -0.10421863 -0.13075201 0.03557996 -0.008702342 0.070516884
-0.16462123 0.036929276 -0.07566938 -0.06124684 0.058460116 0.005862453 0.12545562 0.1064358
-0.1165317 -0.088937424 -0.38152927 0.203877 0.20949683 0.051887684 0.16055669 -0.116145834
-0.039975822 0.047553517 -0.041283533 -0.00877561 0.16980076 0.3075164 -0.21020545 0.1342652
00000000: bb80 c23d fbe5 26be 36b1 a93d 77d5 073d
00000010: 6f30 31bd af52 57be ec82 fd3d e3d0 223e
00000020: a6b9 3cbe 85eb ddbc 65b8 073d 69b1 393d
00000030: 6f6a 0d3e 0e38 00be 10a3 8f3c 52b9 e3bd
00000040: 4850 d9bc 2047 993d 656e 3a3f 7b38 23be
00000050: d490 3bbd 68a3 cabc 35be 47bd b09d 043e
00000060: e651 aa3c 0126 68be d617 a93d fc9c 143d
00000070: 65bc 92b9 0395 71bc 421b 453e a369 eabc
00000080: 5f82 873d 2e10 60bd eef3 9fbd 1692 ac3c
00000090: 686d d43c d16d d63d c3ab 8bbd 5bcc 86bc
000000a0: 6ba0 9bbd a649 9bbc 6435 753d 429f 203e
000000b0: 0e1c d1bd 57ac 84bc f099 c23d 7418 31bd
000000c0: ed90 bf3c 3aa7 20bc 02c3 24be f169 42be
000000d0: fa1a 0f3d 2616 183e 223a c03e e397 1f3e
000000e0: 1bfc 87bd bac6 0bbc 944a c63c f575 f73c
000000f0: d290 68bf 5695 8ebd 482f febb f2e2 edbd
00000100: 7f32 d5bd 941e c9bc ed69 abbd 04e9 a4be
00000110: b6fb 113e 8b02 293e 9cdc 06be 9ba7 2a3e
00000120: 4406 9abb dce9 88b9 fb58 21bd ae3f 44ba
00000130: 0a21 103f 9398 24bd d920 94bd 803d 603e
00000140: e92f 63bc 9f9a 8d3d dae6 603d 7e1a 71bd
00000150: db3d 05be ce5b a8bc 0e96 a8bd aac1 0c3e
00000160: aca3 7fbd 58d1 39bd f571 0e3f 38f8 84bd
00000170: 1e5b 06bd 7641 be3d 05c7 5b3d d8b1 993d
00000180: fc2b 813c 9fcb aa3d 695b 163e 7b0c d73c
00000190: fadc 93be e441 d03d 86fe 543e cbd3 01be
000001a0: 33f1 54bd 56eb ca3e eb97 c1bd 53a3 0bbe
000001b0: bc4e 0cbe 7d93 063d e436 00bd bf4e 9ebd
000001c0: e081 9bbd 201a 533d 7586 32be 0fa5 73bd
000001d0: d44b 0abe eb0d 74bd eae5 17bd cafb fbbd
000001e0: c55a 4dbc c842 3cbe 0515 26be fb68 bb3d
000001f0: c184 64bc b51a 97bd 75ea 1c3d 0e57 55bc
00000200: 47e7 213e d92a 96bd 1420 1f3d 33b5 b03d
00000210: a8a4 e8bd b496 e33d 9ff7 7bbe 7c0f 35be
00000220: 2bb2 243d f753 6dbe 3455 2f3d 4819 4dbe
00000230: 5ddf 853e 5414 e9bd fb51 d3bc f1e3 a63d
00000240: 3bc5 483e 219d e33c f4c8 173f 7ae8 043e
00000250: 53d7 173e 996d 2ebe 9199 6fbd f582 013c
00000260: 4d87 493d 286b 2abe d6ba 2b3d 66d3 0cbe
00000270: 7092 153d dd05 a5bd 0e89 ae3d 9684 623e
00000280: ced1 013d b136 80bc 2442 0f3e bed6 d83d
00000290: 930d 983b 5d8f 5cbe f1a9 f73d ccab c5bd
000002a0: ea55 ffbd b4e8 733e 8340 4d3d aa36 253a
000002b0: 8509 8c3d c5ae 49be 1c03 95be 6072 c13e
000002c0: 54db 573c dbc7 fe3d c3e7 39bf 74d2 95bd
000002d0: 9db6 3d3e d1e1 67bd 2937 e8bd 82c0 5b3d
000002e0: a39d 8c3d 8865 5c3c 10c6 10be dd57 f0be
000002f0: 2c5b dc3e f14b 83bd 1827 fb3d dc45 7b3c
00000300: 412f 24bd 2ea7 0e3e f0f0 9d3d 787d 1cbc
00000310: b07f 15be a4e2 a7bd 3ebe 0f3d d57a 53bd
00000320: c07c 8b3d a5dc cebd a77f 86be e7ef 9d3d
00000330: 5ddc faba 8563 16be b4a1 3ebe 29fa afbe
00000340: 3c4e 6a3e 5601 7b3c 4d07 363d 6e7a 183e
00000350: 8bdf d03e a8e0 5e3b da3d aa3d 329d d5ba
00000360: 6966 81bd a55a bebd c4c4 c43d 1255 b0bc
00000370: 7630 21be bfc9 f03e 0d06 f4bd c978 07be
00000380: b62d 79bc 1ad4 5abd d412 28be 9470 d5bd
00000390: dbe3 05be 4bbc 113d 4594 0ebc 286b 903d
000003a0: 7892 28be 2743 173d 8cf8 9abd f7dd 7abd
000003b0: e073 6f3d d219 c03b 7077 003e 03fb d93d
000003c0: 2ca8 eebd d324 b6bd ce57 c3be 22c5 503e
000003d0: 5686 563e 2e88 543d f968 243e dedd edbd
000003e0: b0bd 23bd 7ac7 423d ec18 29bd 93c7 0fbc
000003f0: 40e0 2d3e ca72 9d3e 1940 57be d17c 093e

classifier.0.bias f4 [2]
0.010290909 -0.052343838
00000000: 339b 283c 7e66 56bd

exp_avg f4 [2, 256]
0.020361533 0.0026884873 0.0217096 0.03723203 0.0141992215 0.013543947 0.017385462 -0.021313768
0.009956518 0.0056191604 -0.032501053 -0.027750004 0.023434756 -0.015217467 -0.041824274 0.022654854
0.030335987 -0.024817303 0.003916846 0.010167828 -0.025338642 -0.016342966 -0.043735683 -0.0058662784
-0.024343826 -0.011562118 -0.018937308 0.024084307 0.032914367 0.00957819 -0.0031351172 -0.01869924
-0.017967397 -0.027522285 0.01431224 -0.046623144 -0.009878172 -0.02050834 0.024181256 0.032741018
-0.016487762 0.03168863 0.030418713 0.0143881235 0.023424333 0.029723752 -0.021557273 0.020993017
-0.028831497 -0.025933562 -0.018283296 -0.012076262 0.043141413 0.019223675 0.0032925701 -0.0037629504
-0.032608066 0.029965414 0.03753703 0.027026538 -0.001593097 0.023042897 -0.008834742 0.020110557
-0.008606221 0.025155682 -0.035127744 -0.0018601338 -0.028561795 -0.023478776 0.018383374 -0.01738166
0.019932885 0.028672349 0.042384945 -0.01093883 -0.0025162653 0.025692692 -0.006443251 0.008283518
-0.018325893 0.017885149 -0.022595925 0.02765657 0.004993392 -0.022800362 0.020096226 0.026778301
0.027605709 -0.02015092 -0.006100698 0.021125237 0.019223971 0.019239156 -0.011970242 -0.0217472
-0.032185383 -0.023021348 0.008896576 0.03806016 -0.011368008 0.0131294215 0.013245885 -0.029577963
-0.037876446 -0.007139286 0.018508019 0.017683834 0.011309525 0.010054135 0.023540538 -0.01760406
0.003900914 -0.024506481 -0.0002522312 -0.012265331 -0.01022047 -0.020371534 0.0261071 -0.01830989
-0.029850936 -0.003993677 0.024224913 0.02318871 -0.020227693 0.016908389 -0.022842392 0.016574625
-0.012646681 0.0134546235 0.024545591 -0.032175735 -0.023185382 0.003009761 -0.012279383 0.019514514
-0.02538883 0.012416507 -0.04106795 -0.0054704486 -0.019239053 -0.010613455 -0.038309254 -0.025071865
-0.018111257 -0.019110207 -0.007039852 0.014677738 -0.014404084 -0.022068711 0.022178536 -0.017259443
0.0069001657 0.008528268 -0.03866727 0.019848865 0.03125112 0.024175815 0.03717415 0.0063112625
-0.025062442 0.01814441 -0.016937366 0.01487738 0.03252807 0.0020944898 0.018248964 -0.020764977
0.02572399 -0.012411319 0.013346569 -0.017984662 -0.007492271 -0.0102239465 -0.007851962 -0.0019224185
0.024505708 -0.019055294 -0.0033168925 -0.00715459 0.016341021 -0.037482433 0.026981857 0.024040686
-0.018711185 0.03063766 0.015503213 -0.0018881834 0.00841242 0.0312964 0.03194177 0.014778269
0.025504922 0.013702122 -0.026827613 0.014931001 -0.0006402322 0.013338773 -0.033961307 -0.018856138
-0.022696227 0.024271024 -0.0015332354 -0.026171055 -0.010405902 -0.019221233 -0.015875842 -0.009276783
0.006957604 -0.031102035 -0.014792616 0.012024908 -0.007337525 -0.013966359 -0.01739964 0.034098435
-0.02167569 -0.017308393 0.016491761 0.026117876 -0.021405192 -0.001477527 0.015182109 -0.010424747
0.029004343 0.027734004 -0.008239623 -0.020807652 0.009742332 0.0016446883 -0.025419543 -0.01685976
0.0047882143 0.007514873 0.019977983 0.025150921 0.037125476 -0.027991189 -0.030192442 -0.020571088
-0.022709502 0.02010508 -0.00439558 -0.016317867 0.008275358 -0.019074678 0.008767321 -0.024174234
-0.027786322 -0.030217147 0.013743075 -0.03150427 0.019460708 0.0010975614 0.014920991 0.024105676
00000000: 3bcd a63c 5531 303b 55d8 b13c 9d80 183d
00000010: daa3 683c 6ee7 5d3c f56b 8e3c 369a aebc
00000020: aa20 233c ef20 b83b d31f 05bd fa53 e3bc
00000030: 3ffa bf3c af52 79bc ee4f 2bbd ac96 b93c
00000040: 2d83 f83c a84d cbbc e358 803b f696 263c
00000050: fc92 cfbc afe1 85bc 3024 33bd e939 c0bb
00000060: b46c c7bc 0a6f 3dbc 6a22 9bbc 744c c53c
00000070: 37d1 063d d7ed 1c3c 8a76 4dbb 262f 99bc
00000080: 5d30 93bc 6a76 e1bc e37d 6a3c e9f7 3ebd
00000090: 0ed8 21bc 1b01 a8bc c517 c63c 721b 063d
000000a0: 5811 87bc f0cb 013d aa30 f93c 2abc 6b3c
000000b0: 63e4 bf3c 3a7f f33c e198 b0bc 8cf9 ab3c
000000c0: 0830 ecbc 9f72 d4bc dac6 95bc 84db 45bc
000000d0: 0db5 303d f87a 9d3c 29c8 573b d59b 76bb
000000e0: 0990 05bd 077a f53c 6ec0 193d c266 dd3c
000000f0: 77cf d0ba 75c4 bc3c 98bf 10bc e5be a43c
00000100: 1b01 0dbc 4a13 ce3c 1ce2 0fbd bccf f3ba
00000110: 6dfa e9bc 9056 c0bc bb98 963c fc63 8ebc
00000120: 4a4a a33c 46e2 ea3c d69b 2d3d c738 33bc
00000130: ede7 24bb 7b79 d23c e821 d3bb 98b7 073c
00000140: 2f20 96bc e083 923c 171b b9bc 0890 e23c
00000150: 9c9f a33b d3c7 babc d7a0 a43c 2b5e db3c
00000160: 5e25 e23c 8b13 a5bc 5de8 c7bb d50e ad3c
00000170: 977b 9d3c 6f9b 9d3c d51e 44bc 2f27 b2bc
00000180: d2d4 03bd 4497 bcbc f2c2 113c f8e4 1b3d
00000190: e240 3abc c91c 573c 4505 593c 7c4d f2bc
000001a0: 5524 1bbd acf0 e9bb 219e 973c b0dd 903c
000001b0: 964b 393c 19ba 243c 16d8 c03c 6436 90bc
000001c0: 7aa6 7f3b d1c1 c8bc e63d 84b9 87f4 48bc
000001d0: c273 27bc 34e2 a6bc 8fde d53c 9ffe 95bc
000001e0: f389 f4bc 64dd 82bb 5373 c63c 40f6 bd3c
000001f0: 8cb4 a5bc 7683 8a3c f81f bbbc 82c7 873c
00000200: 0634 4fbc c870 5c3c d613 c93c b4ca 03bd
00000210: 45ef bdbc 693f 453b 772f 49bc e7dc 9f3c
00000220: 3cfc cfbc 9b6e 4b3c de36 28bd 7341 b3bb
00000230: 389b 9dbc 0fe4 2dbc 2aea 1cbd 8363 cdbc
00000240: 0f5e 94bc 028d 9cbc 8fae e6bb e57a 703c
00000250: 1bff 6bbc 71c9 b4bc c3af b53c ad63 8dbc
00000260: c91a e23b 26ba 0b3c 9261 1ebd 169a a23c
00000270: 2d01 003d 5c0c c63c ec43 183d b5ce ce3b
00000280: c04f cdbc 96a3 943c 3bc0 8abc 41c0 733c
00000290: 273c 053d b543 093b da7e 953c 501b aabc
000002a0: 1ebb d23c d858 4bbc 91ab 5a3c 9254 93bc
000002b0: b981 f5bb 5782 27bc 84a5 00bc a9f9 fbba
000002c0: 32c0 c83c d919 9cbc 3960 59bb 0d71 eabb
000002d0: 9bdd 853c 2e87 19bd 0e09 dd3c f9f0 c43c
000002e0: 3348 99bc d4fb fa3c 3001 7e3c ec7c f7ba
000002f0: 3fd4 093c a730 003d 60d5 023d 8e20 723c
00000300: b3ef d03c dd7e 603c 95c5 dbbc 28a1 743c
00000310: 41d5 27ba de8a 5a3c 031b 0bbd 3078 9abc
00000320: 70ed b9bc 07d4 c63c d8f6 c8ba ae64 d6bc
00000330: 847d 2abc d975 9dbc 0e0e 82bc a6fd 17bc
00000340: 9dfc e33b b2c9 febc ba5c 72bc 1f04 453c
00000350: 9f6f f0bb 28d3 64bc b189 8ebc cdaa 0b3d
00000360: 3791 b1bc 55ca 8dbc bb19 873c 28f5 d53c
00000370: f159 afbc 94a9 c1ba 61be 783c 8fcc 2abc
00000380: 849a ed3c 6c32 e33c 7cff 06bc cf74 aabc
00000390: 4d9e 1f3c 9592 d73a a53c d0bc 7b1d 8abc
000003a0: 74e6 9c3b 533f f63b dea8 a33c 4e09 ce3c
000003b0: e210 183d c74d e5bc 2456 f7bc b384 a8bc
000003c0: 4709 babc 69b3 a43c cc08 90bb 0cad 85bc
000003d0: 5e95 073c 8042 9cbc cfa4 0f3c 0b09 c6bc
000003e0: 24a0 e3bc f389 f7bc a22a 613c 9f0a 01bd
000003f0: 106c 9f3c 0ddc 8f3a 2c77 743c 4479 c53c

exp_avg_sq f4 [2, 256]
0.016651899 0.008342429 0.017442375 0.13991971 0.005763736 0.004415195 0.023357388 0.014517369
0.02235791 0.0014784719 0.12576725 0.03751423 0.021603717 0.008882749 0.1386333 0.018370587
0.036294244 0.023438724 0.0002476555 0.0059182034 0.0576989 0.00875257 0.1576578 0.018063389
0.030056981 0.00720982 0.044587523 0.03431858 0.12668665 0.003443833 0.0003994421 0.0074254293
0.012152566 0.05537384 0.0071181436 0.2182979 0.004227278 0.013525093 0.0247314 0.11778263
0.043196008 0.0929207 0.08395254 0.011878365 0.018701531 0.041507464 0.014169935 0.019513177
0.03294371 0.071766876 0.028188782 0.00438663 0.14319254 0.026591824 0.00092869776 0.0055862903
0.1274813 0.08660061 0.085323185 0.100595556 0.00011479411 0.032228474 0.025861839 0.05848914
0.02360763 0.031263173 0.109904595 0.0009048093 0.025454503 0.017892323 0.014364268 0.014436146
0.014980597 0.039924506 0.091209166 0.005582887 0.00023438803 0.026937937 0.0013390613 0.0071082837
0.018144557 0.01936541 0.05125947 0.028972201 0.0023547746 0.024147011 0.016267944 0.06767164
0.035633255 0.045605965 0.0004597072 0.015387451 0.02629762 0.016368145 0.020502502 0.019492079
0.10344887 0.022106562 0.004316888 0.13900036 0.0031877258 0.015742654 0.0037316026 0.06769317
0.13441117 0.00051346194 0.05643586 0.010003462 0.008195182 0.010161272 0.024389345 0.01838878
0.014016372 0.026767828 0.003920018 0.005637699 0.0013246656 0.01616075 0.03678742 0.014197537
0.057191495 0.004514156 0.0221161 0.05299043 0.017118957 0.044199504 0.02033905 0.031411696
0.0034806125 0.00840572 0.040229525 0.040645227 0.027497122 0.005977885 0.003918087 0.012762275
0.03359367 0.0025378026 0.08293898 0.0063702627 0.0087792175 0.020033702 0.132839 0.03478557
0.009357203 0.012042228 0.0004402895 0.011917146 0.043554857 0.021362282 0.027875341 0.009535153
0.0030801373 0.013356622 0.090276755 0.012728851 0.07081304 0.023095833 0.13097993 0.0031058611
0.025494276 0.010521885 0.008979416 0.00857241 0.107870504 0.00034711402 0.029922254 0.017010054
0.03246008 0.0027410635 0.021867435 0.012496286 0.005522893 0.00676632 0.00069944345 0.0006027962
0.023606725 0.008851959 0.00026773353 0.0007502657 0.023827966 0.14397207 0.036663882 0.046531796
0.012276009 0.053194866 0.008197631 9.257836e-05 0.0011874734 0.04185189 0.082610644 0.0357322
0.020126695 0.033963665 0.031529613 0.010846304 0.0031110486 0.0072305948 0.13919096 0.02594192
0.03432373 0.01834063 0.0020291493 0.046387576 0.005320041 0.031985477 0.012675621 0.0006691924
0.00063148665 0.11755412 0.045947496 0.008524549 0.0010871735 0.0049819257 0.014169786 0.06628318
0.021921497 0.015631678 0.010994969 0.02435859 0.028654024 0.0016006096 0.041548762 0.0047748247
0.03876121 0.034440175 0.0019320591 0.02109733 0.004725092 0.0012286867 0.07527137 0.044037346
0.008880739 0.01731334 0.014120671 0.021227285 0.15925771 0.035993215 0.037904914 0.012312027
0.036630735 0.013992855 0.0001710949 0.008924382 0.0036035262 0.012752972 0.0039572245 0.03971922
0.03344127 0.039847415 0.014222068 0.049091768 0.016402468 0.000103342405 0.007851285 0.027748728
00000000: 9069 883c afae 083c 50e3 8e3c 1d47 0f3e
00000010: b9dd bc3b 57ad 903b fe57 bf3c 42da 6d3c
00000020: f027 b73c 49c9 c13a 21c9 003e 85a8 193d
00000030: 47fa b03c f388 113c e3f5 0d3e ea7d 963c
00000040: 46a9 143d 9102 c03c c2d7 8139 7ded c13b
00000050: af55 6c3d f066 0f3c 0c71 213e acf9 933c
00000060: 0f3a f63c 5b40 ec3b 68a1 363d a491 0c3d
00000070: 25ba 013e eeb1 613b 366c d139 0451 f33b
00000080: 8e1b 473c aecf 623d 513f e93b 7c89 5f3e
00000090: fa84 8a3b 5a98 5d3c 8199 ca3c 0538 f13d
000000a0: 4cee 303d 354d be3d 4fef ab3d 799d 423c
000000b0: f433 993c bb03 2a3d 0429 683c 19da 9f3c
000000c0: fcef 063d 83fa 923d 29ec e63c b8bd 8f3b
000000d0: 11a1 123e 19d7 d93c da73 733a 330d b73b
000000e0: 758a 023e a95b b13d ecbd ae3d 0b05 ce3d
000000f0: 9ebd f038 0102 043d 35dc d33c 4f92 6f3d
00000100: ca64 c13c d00d 003d a915 e13d b930 6d3a
00000110: f685 d03c ec92 923c 1b58 6b3c 9685 6c3c
00000120: 2e71 753c e187 233d dfcb ba3d a7f0 b63b
00000130: 0fc6 7539 f3ac dc3c 7183 af3a 9bec e83b
00000140: e5a3 943c 35a4 9e3c 73f5 513d 1c57 ed3c
00000150: 9052 1a3b f4cf c53c 5a44 853c 6e97 8a3d
00000160: 2df4 113d 52cd 3a3d db04 f139 a61b 7c3c
00000170: 1b6e d73c 7d16 863c ddf4 a73c daad 9f3c
00000180: 00dd d33d d218 b53c ae74 8d3b 1c56 0e3e
00000190: 2ae9 503b bdf6 803c e78d 743b b7a2 8a3d
000001a0: 15a3 093e d999 063a 4a29 673d 90e5 233c
000001b0: 1645 063c 777b 263c 2acc c73c 11a4 963c
000001c0: eda4 653c 3448 db3c 7f73 803b 72bc b83b
000001d0: 67a0 ad3a 8d63 843c 68ae 163d c99c 683c
000001e0: a141 6a3d 7ceb 933b d32c b53c 7e0c 593d
000001f0: 0e3d 8c3c 8a0a 353d 149e a63c 8da9 003d
00000200: fd1a 643b 25b8 093c b7c7 243d 9c7b 263d
00000210: a541 e13c 22e2 c33b 4c63 803b dc18 513c
00000220: 8499 093d 4351 263b e9db a93d a3bd d03b
00000230: b5d6 0f3c b81d a43c f206 083e 507b 0e3d
00000240: f44e 193c c44c 453c a8d6 e639 2240 433c
00000250: 9466 323d f4ff ae3c d45a e43c 5539 1c3c
00000260: 21dc 493b bcd5 5a3c 05e3 b83d ac8c 503c
00000270: 6d06 913d 7933 bd3c 9a1f 063e b48b 4b3b
00000280: 5fd9 d03c fc63 2c3c 671e 133c 4b73 0c3c
00000290: 36eb dc3d dbfc b539 841f f53c ab58 8b3c
000002a0: dcf4 043d 6aa3 333b 5623 b33c 39bd 4c3c
000002b0: 62f9 b43b 02b8 dd3b db5a 373a f804 1e3a
000002c0: e462 c13c cf07 113c 965e 8c39 7bad 443a
000002d0: de32 c33c 6a6d 133e de2c 163d 2098 3e3d
000002e0: 5021 493c dce2 593d 5b4f 063c a126 c238
000002f0: ffa4 9b3a e36c 2b3d c52f a93d ed5b 123d
00000300: bde0 a43c 7c1d 0b3d 3225 013d b2b4 313c
00000310: bce2 4b3b a0ee ec3b 1388 0e3e 2684 d43c
00000320: 0a97 0c3d 173f 963c 7afb 043b e600 3e3d
00000330: bd53 ae3b 3403 033d 68ad 4f3c be6c 2f3a
00000340: 5a8a 253a 37c0 f03d 7133 3c3d 8daa 0b3c
00000350: 7d7f 8e3a 6c3f a33b 6428 683c 7abf 873d
00000360: b694 b33c 010e 803c 3e24 343c aa8b c73c
00000370: d8bb ea3c 8ccb d13a 092f 2a3d 2276 9c3b
00000380: 13c4 1e3d 2411 0d3d 253d fd3a 4fd4 ac3c
00000390: f2d4 9a3b e20b a13a e027 9a3d 8160 343d
000003a0: 8580 113c b5d4 8d3c 635a 673c d8e4 ad3c
000003b0: 7414 233e 9f6d 133d 2f42 1b3d 62b8 493c
000003c0: 1c0a 163d 4a42 653c f067 3339 9237 123c
000003d0: 2329 6c3b d7f1 503c 9bab 813b 9fb0 223d
000003e0: b7f9 083d 0b37 233d ad03 693c 7314 493d
000003f0: 785e 863c 88b9 d838 ada2 003c 4d51 e33c

exp_avg f4 [2]
0.019110046 -0.019110046
00000000: ac8c 9c3c ac8c 9cbc

exp_avg_sq f4 [2]
0.03842581 0.038425814
00000000: 6264 1d3d 6364 1d3d
