mlruns/0/0a374610f00f4f80ad9bfc19aa0191e3/artifacts/autoencoder/data/model.pth (torch, 839432 bytes, 14 tensors)

weight_ih_l0 f4 [512, 8]
0	0x3c615925	0.013754164
1	0xbec06a8d	-0.37581292
2	0xbe79221b	-0.24329416
3	0xbdb4baba	-0.08824678
4	0xbe27a9e3	-0.163734
5	0x3d11e789	0.0356212
6	0x3e6bf854	0.23043948
7	0xbd3e5092	-0.046463557
8	0xbe24608f	-0.16052459
9	0xbeb7e80b	-0.35919222
10	0xbe912a81	-0.2835274
11	0xbeff589a	-0.49872285
12	0xbe910ee6	-0.2833168
13	0xbdb601d7	-0.0888707
14	0xbf4aec97	-0.7926726
15	0xbeb86ecb	-0.36022028
16	0x3d42567b	0.047445755
17	0xbe8a1ce7	-0.26975176
18	0xbdf9a27a	-0.12189193
19	0xbf82f0f3	-1.0229782
20	0xbee84c61	-0.45370772
21	0xbe075a46	-0.1321803
22	0xbf1f18a9	-0.62147003
23	0xbec1ca1c	-0.3784951
24	0xbe07b0a3	-0.13250975
25	0xbe6d925f	-0.23200367
26	0xbe757dca	-0.23973766
27	0xbeb9ceca	-0.3629058
28	0xbebbfcc8	-0.36716294
29	0xbe08445e	-0.1330733
30	0xbee1c9a0	-0.4409914
31	0xbe5b17b9	-0.21395768
32	0xbe8c1d75	-0.27366224
33	0xbf63438c	-0.88774943
34	0xbf3bd198	-0.7336669
35	0xbbc58cc3	-0.006028743
36	0xbc3d5aca	-0.01155729
37	0xbe51761c	-0.20455211
38	0xbf20f522	-0.62874043
39	0xbe9d1ad2	-0.30684525
40	0xbe4ce8f0	-0.20010734
41	0xbe24cbc0	-0.1609335
42	0xbdcbdc58	-0.099541366
43	0xbe92955a	-0.2862957
44	0xbe34e572	-0.17665651
45	0xbdafa232	-0.08575858
46	0xbf960db3	-1.1722931
47	0xbe7a589f	-0.24447869
48	0xbe720868	-0.23636019
49	0xbea08c6c	-0.31357133
50	0xbe5aa6c4	-0.21352679
51	0xbe85605c	-0.2605008
52	0xbe51bbe6	-0.20481834
53	0xbe2c55c3	-0.1682959
54	0xbf055950	-0.52089405
55	0xbe9381cd	-0.28809968
56	0xbf248f50	-0.6428118
57	0xbf1b6b80	-0.60710907
58	0xbf19b422	-0.60040486
59	0xbef28089	-0.4736369
60	0xbf1ecd67	-0.6203217
61	0xbf126ca8	-0.57197046
62	0xbf3a32da	-0.72733843
63	0xbefb395f	-0.49067208
64	0xbec950af	-0.3931937
65	0xbde90d88	-0.11379534
66	0xbe456793	-0.19277792
67	0xbe6c2ff3	-0.23065166
68	0xbec12c6c	-0.37729204
69	0xbef38f57	-0.47570297
70	0xbe8ee9b8	-0.27912688
71	0xbe7e184a	-0.24813953
72	0xbde0e96c	-0.10982022
73	0xbedc80a7	-0.43066904
74	0xbe7d9521	-0.2476392
75	0xbdade2d7	-0.08490532
76	0xbe726b4f	-0.23673747
77	0xbde56500	-0.11200905
78	0xbdc90911	-0.098161824
79	0xbdbc7990	-0.09202874
80	0xbe4f61cc	-0.2025215
81	0xbea8b6ec	-0.32952058
82	0xbe9fb226	-0.31190604
83	0xbe463893	-0.19357519
84	0xbe738d29	-0.23784317
85	0xbe510c8b	-0.20414941
86	0xbd1ad211	-0.03779799
87	0xbe9597a7	-0.29217264
88	0xbedffe94	-0.43748915
89	0xbf205e71	-0.62644106
90	0xbf039a66	-0.5140747
91	0xbcb84670	-0.022494525
92	0xbeaba332	-0.33522946
93	0xbec03409	-0.375397
94	0xbf31170f	-0.6917581
95	0xbeb5bac1	-0.35494044
96	0x3e8ea18d	0.27857628
97	0x3e21ef66	0.1581398
98	0x3ca3b9b6	0.019986015
99	0xbee1c356	-0.44094342
100	0x3dbc8fdc	0.092071265
101	0x3e082598	0.13295591
102	0x3e577648	0.21041214
103	0x3d13cf5c	0.036086425
104	0xbe3f5d00	-0.1868782
105	0xbcefabae	-0.029256668
106	0xbe15edd5	-0.14641507
107	0xbf2d1c6e	-0.67621505
108	0xbebae742	-0.3650456
109	0xbe7d719f	-0.24750374
110	0xbeb0abe9	-0.34506157
111	0xbe958aeb	-0.29207548
112	0xbee93a54	-0.45552313
113	0xbf398448	-0.7246747
114	0xbf0dbd32	-0.55366814
115	0x3e0c824b	0.13721578
116	0xbe0bf4de	-0.13667628
117	0xbecc5e1c	-0.3991555
118	0x3dec1a18	0.115284145
119	0xbe92fc66	-0.2870819
120	0xbec86194	-0.39136946
121	0xbdc884b0	-0.09790933
122	0xbd35514b	-0.04426698
123	0xbea475b1	-0.3212104
124	0xbe8aa59e	-0.2707948
125	0xbe7f40c4	-0.2492705
126	0xbe9348c8	-0.28766465
127	0xbe4a1fbd	-0.1973867
128	0xbf208821	-0.62707716
129	0xbf1a062a	-0.60165656
130	0xbf1ff1f1	-0.6247855
131	0xbf11b77c	-0.569206
132	0xbefa1e12	-0.48851067
133	0xbf1ea572	-0.619712
134	0xbf07d4e4	-0.5305922
135	0xbf0034c2	-0.500805
136	0xbec7da7a	-0.39033872
137	0xbe790eee	-0.24322101
138	0xbe8d5b33	-0.27608642
139	0xbe85ff18	-0.26171184
140	0xbea38a32	-0.31941372
141	0xbec66204	-0.38746655
142	0xbea53fd1	-0.3227525
143	0xbe9d4f8b	-0.3072475
144	0xbe0e8cec	-0.13920945
145	0xbe874514	-0.2641989
146	0xbe168d44	-0.14702326
147	0xbee31377	-0.44350788
148	0xbe40e755	-0.18838246
149	0xbd9873d4	-0.074439675
150	0xbf2a9273	-0.66629714
151	0xbeab9285	-0.33510223
152	0xbea3b74d	-0.31975785
153	0xbf0168d8	-0.50550604
154	0xbf02211d	-0.50831777
155	0xbeb7d360	-0.35903454
156	0xbe522b37	-0.20524298
157	0xbebd3d3e	-0.36960787
158	0xbecf9588	-0.4054377
159	0xbebf3bc3	-0.37350282
160	0xbdcd552f	-0.10026013
161	0xbd13eb72	-0.03611321
162	0xbe2bda98	-0.16782606
163	0xbf105121	-0.5637379
164	0xbe33e2e4	-0.1756702
165	0x3dc8f2a2	0.098119035
166	0xbe3a476a	-0.18191305
167	0xbdcb3026	-0.09921293
168	0xbec9ddbf	-0.3942699
169	0xbf38a610	-0.7212839
170	0xbf0956ed	-0.53648263
171	0xbe4ca3a6	-0.19984302
172	0xbebbd751	-0.3668771
173	0xbe847ac4	-0.25874913
174	0xbdef30c7	-0.116792254
175	0xbed89af3	-0.42305717
176	0xbeee409a	-0.46533662
177	0xbd583f96	-0.052795015
178	0xbe609226	-0.21930751
179	0xbf14acd0	-0.5807619
180	0xbee5b373	-0.4486347
181	0xbe9ffe06	-0.31248492
182	0xbefe4c65	-0.4966766
183	0xbee7fd60	-0.45310497
184	0xbec63fe4	-0.3872062
185	0xbea07652	-0.3134027
186	0xbe984d83	-0.29746637
187	0xbf73bb06	-0.9520725
188	0xbf305a7a	-0.68888056
189	0xbee98c45	-0.4561483
190	0xbf35be4e	-0.70993507
191	0xbf1b68bb	-0.6070668
192	0xbf2e2cc7	-0.68037075
193	0xbf061948	-0.52382326
194	0xbf086817	-0.5328383
195	0xbed86880	-0.42267227
196	0xbf269fea	-0.6508776
197	0xbf1c3290	-0.6101465
198	0xbf0779c2	-0.5292016
199	0xbf1c2578	-0.6099467
200	0xbe43ae7b	-0.19109528
201	0xbea433fa	-0.32070905
202	0xbeadd275	-0.33949628
203	0xbec36892	-0.38165718
204	0xbe9b2a24	-0.30305588
205	0xbde02d9d	-0.109462
206	0xbed17a56	-0.40913647
207	0xbe537dce	-0.2065346
208	0xbe2a0d46	-0.16606626
209	0xbe1388a2	-0.1440759
210	0xbccc4656	-0.024935883
211	0xbea21d72	-0.3166309
212	0xbda14001	-0.07873536
213	0x3c08f750	0.008359745
214	0xbf89ac6a	-1.0755742
215	0xbe92b6d4	-0.28655112
216	0xbf1bb5c2	-0.60824215
217	0xbf42e738	-0.7613406
218	0xbeff6a90	-0.49885988
219	0xbdf55a71	-0.11980141
220	0xbe440c6d	-0.19145365
221	0xbf0a13ad	-0.5393627
222	0xbe21bd70	-0.15794921
223	0xbe91a6fc	-0.2844771
224	0xbe6571b8	-0.22406662
225	0xbe911230	-0.28334188
226	0xbeac142e	-0.33609146
227	0xbe78a2b3	-0.24280815
228	0xbec4c878	-0.38434196
229	0xbe4f7ce0	-0.2026248
230	0xbf21e50c	-0.6324012
231	0xbead32ef	-0.33827922
232	0xbd9610c1	-0.07327414
233	0x3d17add9	0.03703103
234	0xbe0fbe88	-0.14037526
235	0xbeeba2f0	-0.4602275
236	0xbdb60a1a	-0.088886455
237	0xbe189e29	-0.14904083
238	0xbe3937e9	-0.18087734
239	0xbe5c3e28	-0.21508086
240	0xbe39577a	-0.18099776
241	0xbeb0df6e	-0.34545463
242	0xbe156231	-0.14588238
243	0xbdce3e43	-0.10070469
244	0xbdd433a2	-0.10361411
245	0xbe6d9425	-0.23201044
246	0xbf87189b	-1.0554384
247	0xbeae1aef	-0.34004924
248	0x3dae6955	0.08516184
249	0x3e7e049f	0.2480645
250	0x3e1dbfd6	0.15405211
251	0xbcee9d02	-0.029127602
252	0x3e39c583	0.18141751
253	0x3e917d90	0.2841611
254	0x3e225f84	0.15856749
255	0x3e3376bb	0.17525761

weight_hh_l0 f4 [512, 128]
0	0x3d8ff66f	0.07029425
1	0x3ca553c6	0.020181548
2	0xbd26515a	-0.040604927
3	0xbd6532f7	-0.055956807
4	0x3e36242e	0.17787239
5	0xbe43754b	-0.19087712
6	0x3daa5731	0.08317412
7	0x3dae1fc8	0.085021555
8	0xbe3c449b	-0.18385546
9	0x3e61d798	0.22054899
10	0x3e60b176	0.21942696
11	0xbed9c981	-0.42536548
12	0xbd8e105e	-0.069367155
13	0xbddd7bbd	-0.10814617
14	0x3e2de7c6	0.16982946
15	0x3e384fc1	0.17999174
16	0xbd103508	-0.035206825
17	0xbd77b010	-0.06047064
18	0x3e199ec9	0.15001978
19	0x3d41ed33	0.04734535
20	0xbeae38b0	-0.34027624
21	0xbc57ef37	-0.013179592
22	0xbe8ded26	-0.27719992
23	0xbd9e67ed	-0.07734666
24	0x3d1c7a5b	0.038202625
25	0xbd822d5b	-0.06356307
26	0xbe9d4fd0	-0.30724955
27	0x3d59b900	0.053154945
28	0x3d382b75	0.04496332
29	0x3e9263be	0.28591722
30	0xbce77df6	-0.028258305
31	0x3e0a7a12	0.13523129
32	0xbcd2ae5e	-0.02571791
33	0xbe20e4b3	-0.15712242
34	0xbe0db361	-0.13837959
35	0xbead0229	-0.3379071
36	0xbdad2f0d	-0.0845624
37	0xbe81daa4	-0.25362122
38	0x3d964ca7	0.07338839
39	0xbecc0fc9	-0.39855793
40	0xbe33ccd1	-0.175586
41	0x3dc92147	0.098208
42	0xbe95bea1	-0.29247
43	0xbcdee246	-0.027207505
44	0xbc48199f	-0.01221314
45	0xbd9b174d	-0.07572804
46	0xbe686a08	-0.22696698
47	0x3f0978e7	0.5370011
48	0xbe2d6739	-0.16933908
49	0xbe698cb1	-0.22807576
50	0x3f02bc57	0.51068634
51	0xb9ac0177	-0.00032807488
52	0x3edc8a76	0.43074387
53	0xbef6f0aa	-0.48230487
54	0x3e260189	0.16211523
55	0xbf194abe	-0.5987967
56	0xbdce181d	-0.10063193
57	0x3e8427ee	0.25811714
58	0xbef6d3c3	-0.48208436
59	0x3e0b144b	0.1358196
60	0xbf0093d7	-0.50225586
61	0x3e9710ae	0.29504913
62	0xbcd7e608	-0.026354805
63	0xbd328109	-0.04358009
64	0x3e1ec504	0.15504843
65	0x3f1017c4	0.56286263
66	0x3e10fe4e	0.1415951
67	0x3db598ef	0.088670604
68	0x3d1be7ad	0.03806274
69	0x3d496e3d	0.049177397
70	0xbe5bfb1d	-0.21482511
71	0x3e97edad	0.2967352
72	0xbc703971	-0.014662133
73	0xbf0a3c77	-0.5399851
74	0xbeb68801	-0.35650638
75	0xbdf90a6b	-0.1216019
76	0x3dbdf1e6	0.09274654
77	0xbe038e2e	-0.12847206
78	0x3d6a71bf	0.057237383
79	0x3df00e0f	0.117214315
80	0x3bfc577d	0.007700859
81	0xbaf9727c	-0.0019031311
82	0x3e9c2076	0.30493516
83	0x3ec6b3c8	0.38809037
84	0x3d9ff4fa	0.078103974
85	0xbd3b57cf	-0.045738038
86	0xbebd5a56	-0.36982983
87	0xbdc964b4	-0.09833661
88	0xbd75bb3a	-0.059993006
89	0x3e7b7fe2	0.24560502
90	0xbd0188f0	-0.031624734
91	0x3efdb8e5	0.49555126
92	0x3de06d21	0.10958315
93	0xbec08112	-0.37598473
94	0x3e2c5e86	0.16832933
95	0xbe5f74ac	-0.2182185
96	0xbe4bc984	-0.19901091
97	0xbe6402ae	-0.22266647
98	0x3e62140c	0.2207796
99	0xbeceae42	-0.40367323
100	0xbed2ecf2	-0.411964
101	0x3c0ee9c7	0.008722729
102	0xbe334811	-0.1750796
103	0xbe42a4c4	-0.19008166
104	0xbe533eb9	-0.20629396
105	0xbcddaacd	-0.027058983
106	0x3e92bac3	0.28658113
107	0x3e5a38b8	0.21310699
108	0xbe05fbd6	-0.13084349
109	0x3d115c32	0.035488315
110	0xbc17e5b9	-0.009271079
111	0x3e97ff8b	0.2968715
112	0xbe8102bf	-0.25197408
113	0x3ec01bf5	0.3752133
114	0xbe26d9e2	-0.16294053
115	0x3c8b2b39	0.016988384
116	0xbeb91d74	-0.36155283
117	0xbe0e2f97	-0.13885342
118	0xbe3b5f1c	-0.18298
119	0x3f17a74f	0.5923967
120	0x3e3b8853	0.18313722
121	0x3e38ba21	0.18039753
122	0xbe9ee7fc	-0.31036365
123	0xbed4d139	-0.41565874
124	0x3e70101a	0.23443642
125	0x3e0d1cfe	0.13780591
126	0x3ed8dd5c	0.42356384
127	0xbe46669b	-0.19375078
128	0x3dd76b3a	0.10518499
129	0x3deac2f4	0.114629656
130	0x3d7855a3	0.060628545
131	0x3df8239b	0.12116166
132	0x3eb7cdc1	0.35899165
133	0xbe9a2ef8	-0.3011396
134	0xbd0738c4	-0.03301312
135	0xbe13280f	-0.1437075
136	0x3cb1c5e9	0.021700816
137	0xbc3e6cb6	-0.011622598
138	0xbcf1ee2d	-0.029532516
139	0xbe8ad462	-0.2711516
140	0xbcd3ee7b	-0.025870552
141	0x3de3f5ea	0.11130889
142	0xbd8f7676	-0.070050165
143	0x3e9cfba8	0.30660748
144	0x3d9271ca	0.0715061
145	0xbd62ba82	-0.05535365
146	0x3d9d32db	0.076757155
147	0x3d16cf6f	0.036818918
148	0x3e897084	0.26843655
149	0xbd89a7f6	-0.06721489
150	0xbc234fc0	-0.009967744
151	0x3d9b0d08	0.07570845
152	0xbd1c9933	-0.03823204
153	0x3d8d5d3c	0.06902549
154	0xbe8df8ed	-0.27728978
155	0xbd260e2f	-0.04054087
156	0x3dd803f6	0.105476305
157	0x3e528ac8	0.20560753
158	0x3d4c45a6	0.04987111
159	0x3dc57f63	0.09643438
160	0x3d89f549	0.067362376
161	0xbd4f3e09	-0.05059627
162	0x3d1bc6dd	0.038031448
163	0xbdd38e1c	-0.103298396
164	0x3e0805c7	0.13283454
165	0x3c96adf2	0.01839349
166	0xbd5317a2	-0.05153621
167	0xbe4461e0	-0.19177961
168	0x3d0bdff2	0.034149118
169	0x3c4e9f63	0.012611243
170	0xbc8eba72	-0.017422888
171	0xbc9b0aa2	-0.018925969
172	0x3de0bdac	0.10973677
173	0x3d28e3bb	0.041232806
174	0x3e484be6	0.19560203
175	0x3e8db0a8	0.2767384
176	0xbdba769c	-0.09104654
177	0x3e287408	0.16450512
178	0x3e789657	0.242761
179	0xbd954f3f	-0.072905056
180	0x3e88ec31	0.267427
181	0xbdbfbfa1	-0.09362722
182	0xbdcc76fc	-0.09983632
183	0xbe4b7f48	-0.19872773
184	0xbe3b34dd	-0.18281884
185	0xbe2ce1c3	-0.16882996
186	0xbeb84d39	-0.35996416
187	0x3e1a844b	0.15089528
188	0xbd26b7d1	-0.040702645
189	0xbd22d389	-0.039752517
190	0xbd6c8d33	-0.057751846
191	0xbe12f373	-0.14350681
192	0xbd853eb3	-0.065060996
193	0x3eb19189	0.34681347
194	0xbd9f9fe5	-0.07794169
195	0xbd958f48	-0.07302719
196	0x3d74abe9	0.05973426
197	0xbd6b55ec	-0.05745499
198	0xbd7e3751	-0.062064473
199	0x3c908196	0.017639916
200	0x3c80b300	0.015710354
201	0x3e557007	0.20843516
202	0xbd55acc2	-0.052166708
203	0x3d058181	0.032594208
204	0x3de4862f	0.11158406
205	0xbcf30224	-0.029664107
206	0xbe0def66	-0.13860855
207	0xbe7f2fdc	-0.249206
208	0xbb6db435	-0.0036270742
209	0xbd09cb3c	-0.033641085
210	0x3e57f3d3	0.21089105
211	0xbc5a2e48	-0.013316698
212	0x3c47d1ce	0.012196017
213	0xbe5138be	-0.20431802
214	0xbe2d5535	-0.16927035
215	0x3e3b8b61	0.18314888
216	0xbe238678	-0.15969265
217	0x3dd66664	0.10468748
218	0xbe6bf550	-0.23042798
219	0x3cbf0ff6	0.02332304
220	0xbe0ff0ee	-0.14056751
221	0x3d5ef939	0.054436896
222	0x3cccab57	0.024984045
223	0xbf165f4c	-0.5873916
224	0xbe822654	-0.25419867
225	0xbe2668a7	-0.16250859
226	0x3d9c5877	0.07634061
227	0xbe5a74d9	-0.21333636
228	0xbe9266b6	-0.28593987
229	0xbb400841	-0.0029301795
230	0xbd93a56e	-0.072092876
231	0xbeb556a7	-0.35417673
232	0xbd349f04	-0.04409696
233	0x3cbc9762	0.023021404
234	0x3edb5000	0.42834473
235	0x3d931e9f	0.07183575
236	0x3e803742	0.25042158
237	0xbddf2496	-0.1089565
238	0x3d95daf5	0.07317153
239	0x3e9762ed	0.29567662
240	0x3ddff8de	0.109361395
241	0x3e36d33b	0.17854016
242	0x3db31d7f	0.0874586
243	0x3d365cc1	0.04452205
244	0x3d3a99e8	0.045556933
245	0x3eaf9bbe	0.3429851
246	0x3dff28e8	0.12458974
247	0x3e38e424	0.18055779
248	0x3c4590c2	0.012058439
249	0xbe1b08b4	-0.15140039
250	0xbdffe390	-0.12494576
251	0xbe8baa40	-0.27278328
252	0x3d5fbe76	0.054624997
253	0x3e55c740	0.20876789
254	0x3e01b1eb	0.12665527
255	0x3db2370c	0.087019056

bias_ih_l0 f4 [512]
0	0xbce25715	-0.027629415
1	0xbea47e9c	-0.32127845
2	0xbe821e18	-0.25413585
3	0xbeafebbb	-0.34359536
4	0xbe91096c	-0.283275
5	0xbe4c699a	-0.19962159
6	0xbe9ba50c	-0.30399358
7	0xbf1d2206	-0.6138004
8	0xbeb4017a	-0.35157377
9	0xbe099379	-0.13435163
10	0xbe8b2836	-0.27179116
11	0xbe8dd270	-0.27699614
12	0x3bae5032	0.0053196186
13	0xbed82854	-0.42218268
14	0xbe89358f	-0.26798674
15	0xbe6397d7	-0.22225891
16	0xbf1311b9	-0.5744892
17	0xbe8d1c4e	-0.27560657
18	0xbe73a342	-0.23792747
19	0xbeb58cd6	-0.35459012
20	0xbe31eabc	-0.173747
21	0xbeda9d62	-0.426982
22	0xbef374bf	-0.47550008
23	0xbefc92ca	-0.4933074
24	0xbf0838b2	-0.5321151
25	0xbe50d22d	-0.20392676
26	0xbe3b8341	-0.18311788
27	0xbeb00653	-0.34379825
28	0xbe991b72	-0.29903752
29	0xbdc62d80	-0.09676647
30	0xbeb3bfcb	-0.35107264
31	0x3e4469ad	0.19180937
32	0xbe552317	-0.20814167
33	0x3ce790ea	0.028267343
34	0xbe8cb1cf	-0.27479407
35	0xbe29c9df	-0.16580914
36	0xbef5637a	-0.47927457
37	0xbee4b64b	-0.44670328
38	0xbf0ef8e7	-0.55848545
39	0xbe03158f	-0.12801193
40	0xbeb28f42	-0.34874922
41	0xbea18a32	-0.31550747
42	0xbeaadcec	-0.33371675
43	0xbea2e832	-0.31817776
44	0xbde82425	-0.11335019
45	0xbf112e57	-0.56711334
46	0xbea6c717	-0.32573768
47	0xbe9abcb8	-0.30222106
48	0xbef98bae	-0.4873938
49	0xbdc27da5	-0.09496621
50	0xbe36c470	-0.17848372
51	0xbe9d0f0d	-0.30675545
52	0xbe9af54e	-0.30265278
53	0xbe339286	-0.17536363
54	0xbf287488	-0.6580281
55	0xbe823af6	-0.2543561
56	0xbe37f028	-0.17962706
57	0xbecb30d7	-0.396857
58	0xbe91aa82	-0.284504
59	0xbe36f143	-0.17865472
60	0xbdb2e3b6	-0.08734839
61	0xbe941e79	-0.289295
62	0xbeab7dd3	-0.33494434
63	0xbebb9317	-0.36635658
64	0xbed874ec	-0.42276704
65	0xbe8393ca	-0.25698692
66	0xbecf439a	-0.40481263
67	0xbe91e1f3	-0.28492698
68	0xbe2378e0	-0.15964079
69	0xbebbbfc6	-0.3666975
70	0xbe86bba2	-0.26315027
71	0xbe48006c	-0.19531411
72	0xbea35aff	-0.31905362
73	0xbec09147	-0.37610838
74	0xbe9eb36c	-0.30996263
75	0xbe9dd47a	-0.3082617
76	0xbe71bfef	-0.23608373
77	0xbe0057d0	-0.12533498
78	0xbe8c6ead	-0.2742819
79	0xbe6be951	-0.23038222
80	0xbefc88b1	-0.49323037
81	0xbf05564e	-0.52084816
82	0xbdc444bd	-0.09583423
83	0xbe57b244	-0.21064097
84	0xbee6ce31	-0.45079187
85	0x3e4e50a2	0.20147946
86	0xbe7a9fec	-0.24475068
87	0xbe1191fb	-0.14215843
88	0xbe61a9cb	-0.22037427
89	0xbe5b8ca5	-0.2144037
90	0xbe903679	-0.2816656
91	0xbe7ff1ea	-0.24994627
92	0xbf1fc769	-0.6241365
93	0xbe636b9f	-0.22209023
94	0x3e858db6	0.2608468
95	0xbe908828	-0.2822888
96	0xbd948132	-0.072512046
97	0xbe7ff806	-0.24996957
98	0xbed3c889	-0.41363934
99	0xbe59009e	-0.21191642
100	0xbe830f45	-0.25597587
101	0xbef4dd70	-0.47825193
102	0xbe6edf44	-0.23327357
103	0xbe69f265	-0.22846372
104	0xbe2cb9c3	-0.16867737
105	0xbe0e3ed2	-0.13891152
106	0xbe226c92	-0.15861729
107	0xbe6766fa	-0.22597876
108	0xbe54c09b	-0.20776598
109	0xbe0b358b	-0.13594644
110	0xbe90c2a4	-0.282735
111	0xbba26646	-0.0049560396
112	0xbea34133	-0.3188568
113	0xbe2d5775	-0.16927893
114	0xbe468ec0	-0.19390392
115	0xbf10d85f	-0.56580156
116	0xbe8b1b90	-0.27169466
117	0xbdf2ad15	-0.11849419
118	0xbede32e0	-0.4339819
119	0xbe22ed6f	-0.15910886
120	0xbeb884c5	-0.36038795
121	0xbebed2f1	-0.3727031
122	0xbec35040	-0.38147163
123	0xbe4250b9	-0.18976106
124	0xbf03f849	-0.5155073
125	0xbe583f0a	-0.21117797
126	0xbd4bf65a	-0.049795486
127	0xbea6b003	-0.3255616
128	0xbe0b0e28	-0.13579619
129	0xbe0363db	-0.1283106
130	0xbc921173	-0.017830586
131	0xbde69809	-0.11259467
132	0x3ea2b702	0.3178025
133	0xbdef4792	-0.11683573
134	0xbdf92f8f	-0.12167274
135	0xbe9520cf	-0.29126593
136	0xbe2706e5	-0.16311224
137	0xbe091b4b	-0.13389318
138	0x3c24dd14	0.010062475
139	0x3d2d3813	0.042289805
140	0x3d279760	0.040915847
141	0xbdb28a61	-0.087178
142	0x3cf0b819	0.02938466
143	0x3d47a355	0.04873975
144	0xbeb93e78	-0.36180472
145	0xbe1312af	-0.14362596
146	0xbc9cf6ab	-0.01916059
147	0xbeaea392	-0.3410917
148	0xbd376252	-0.0447715
149	0xbe61ed84	-0.22063261
150	0xbccec78c	-0.025241636
151	0xbecafe2c	-0.39647043
152	0xbeb3f7cf	-0.3515
153	0xbe4c8c54	-0.19975406
154	0xbddd5898	-0.108079135
155	0xbe7a5221	-0.24445392
156	0xbe48b459	-0.19600047
157	0x3e485860	0.19564962
158	0xbe23f9ed	-0.16013308
159	0x3f285096	0.65747964
160	0xbdbbcdf4	-0.09170142
161	0xbc63df26	-0.013908183
162	0xbd9e1cb5	-0.07720319
163	0xbc0e2239	-0.0086751515
164	0xbe391657	-0.18074928
165	0xbebd64f3	-0.3699108
166	0xbed9ae98	-0.42516017
167	0x3dd150f1	0.102205165
168	0xbe399cfe	-0.18126294
169	0xbdcf384a	-0.10118158
170	0xbe09e6a6	-0.13466892
171	0xbebb23d0	-0.3655076
172	0xbe0462cc	-0.12928313
173	0xbe994780	-0.29937363
174	0xbd96f7e3	-0.073714994
175	0xbe3432bc	-0.17597479
176	0xbebe4c11	-0.3716741
177	0x3de4c02a	0.11169465
178	0x3e35737b	0.17719834
179	0xbe7a886b	-0.24466102
180	0x3e90e0b6	0.2829644
181	0x3dc6cb4e	0.09706746
182	0xbee29c60	-0.4425993
183	0x3d85de4c	0.065365404
184	0x3e31b38c	0.17353648
185	0xbe90b211	-0.28260854
186	0x3b7e2572	0.0038779643
187	0x3e30cc85	0.17265518
188	0xbe27db6f	-0.16392301
189	0x3e8245fa	0.25444013
190	0xbd6d6ecb	-0.05796699
191	0x3cc3d294	0.023904122
192	0xbeaae4b5	-0.33377615
193	0x3d5b9808	0.053611785
194	0xbe855ef0	-0.26048994
195	0xbe9ed0ad	-0.31018582
196	0x3e5acb39	0.21366586
197	0xbe790dfb	-0.2432174
198	0x3e259d5b	0.16173308
199	0xbd27a6fd	-0.040930737
200	0xbeae0e85	-0.33995453
201	0xbd3d07d5	-0.046150047
202	0xbe1b0c9e	-0.15141532
203	0x3df1adf6	0.118007585
204	0x3dd93601	0.106060036
205	0x3ae429ad	0.001740744
206	0xbd923835	-0.07139627
207	0xbe4e7efb	-0.20165627
208	0xbebbc527	-0.36673853
209	0xbe99194d	-0.29902115
210	0x3d836efd	0.06417654
211	0xbdac9140	-0.08426142
212	0xbebf0bd2	-0.37313706
213	0x3e9f405f	0.311038
214	0xbcd52fa2	-0.02602369
215	0xbdf44942	-0.11928035
216	0xbd88f746	-0.06687789
217	0x3d288384	0.041141048
218	0x3ca05325	0.019570896
219	0xbdd2e466	-0.1029747
220	0xbe8cda53	-0.27510318
221	0x3dbbd23c	0.091709584
222	0x3f07e93f	0.5309028
223	0x3e09b578	0.13448131
224	0x3db3a47c	0.08771607
225	0xbde9e8e4	-0.114213735
226	0xbe87587d	-0.264347
227	0xbdddf4fd	-0.108377434
228	0xbcb6f376	-0.022332888
229	0xbe9f7f9d	-0.3115205
230	0xbda89e65	-0.08233336
231	0x3e00cefe	0.12578961
232	0xbd13b04b	-0.036056798
233	0xbd2b5edc	-0.04183851
234	0x3eda7fe1	0.4267569
235	0x3def8ebe	0.11697148
236	0x3e0ef2dc	0.13959831
237	0xbdb1f756	-0.08689754
238	0xbd4c335b	-0.049853664
239	0x3f024da8	0.50899744
240	0xbcd3bdd7	-0.025847359
241	0x3dd6477a	0.10462852
242	0x3e68c6bf	0.22732066
243	0xbee5700e	-0.44812053
244	0x3dd4b6d9	0.10386438
245	0x3e987f04	0.29784405
246	0xbe55e842	-0.2088938
247	0x3c438cd0	0.011935428
248	0xbc443ca0	-0.011977345
249	0xbe2f28b8	-0.17105377
250	0xbe75fe9e	-0.2402291
251	0x3e4697f1	0.19393899
252	0xbe9a1168	-0.30091405
253	0x3cbf926e	0.023385253
254	0x3c99f72b	0.018794617
255	0xbdcc4d03	-0.09975626

bias_hh_l0 f4 [512]
0	0xbe0d1502	-0.13777545
1	0xbebe477b	-0.3716391
2	0xbeace6af	-0.33769748
3	0xbe86015c	-0.26172912
4	0xbe847579	-0.25870875
5	0xbe9a3e05	-0.30125442
6	0xbe9001bb	-0.2812632
7	0xbf0cfd1b	-0.5507371
8	0xbeb047f4	-0.34429896
9	0xbd9666c9	-0.073438235
10	0xbe327809	-0.17428602
11	0xbecbb751	-0.39788297
12	0xbccaf065	-0.024772832
13	0xbeb181c7	-0.34669325
14	0xbe55cc19	-0.20878638
15	0xbeb4d782	-0.3532067
16	0xbf2c3156	-0.6726278
17	0xbecd59e2	-0.40107638
18	0xbeb6eeed	-0.3572916
19	0xbe9f3fbe	-0.3110332
20	0xbdc59286	-0.09647088
21	0xbec20352	-0.37893158
22	0xbed49287	-0.41518041
23	0xbf1ec18e	-0.6201409
24	0xbf10da5f	-0.5658321
25	0xbe8c89ad	-0.27448788
26	0xbe46b54e	-0.194051
27	0xbebf9e58	-0.37425494
28	0xbe904389	-0.28176525
29	0xbe6c72e4	-0.23090702
30	0xbea8ea9b	-0.3299149
31	0x3d4e0881	0.05030108
32	0xbe0cb696	-0.13741526
33	0xbdb52f15	-0.08846871
34	0xbe92612a	-0.28589755
35	0xbe8eb617	-0.278733
36	0xbef4da06	-0.4782259
37	0xbeb76f19	-0.35826948
38	0xbf1158f1	-0.5677634
39	0xbde9e503	-0.11420634
40	0xbe9b8797	-0.30376884
41	0xbe95f7ae	-0.29290527
42	0xbe9a178e	-0.30096096
43	0xbead5d72	-0.33860356
44	0xbdc8844c	-0.097908586
45	0xbf09c8d1	-0.53822047
46	0xbe3a69be	-0.182044
47	0xbe9141da	-0.28370553
48	0xbf0f1b27	-0.55900806
49	0xbe1079af	-0.14108919
50	0xbe641c4d	-0.22276421
51	0xbe9f28ff	-0.31085965
52	0xbebb5cf3	-0.36594352
53	0xbe496d54	-0.19670612
54	0xbf14a2a1	-0.5806065
55	0xbe8b1b58	-0.271693
56	0xbe8d5134	-0.27601016
57	0xbeeaccd8	-0.45859408
58	0xbec21b98	-0.37911677
59	0xbe6fe2b6	-0.23426327
60	0xbda9d77d	-0.08293054
61	0xbe52c4e9	-0.20582928
62	0xbed280b5	-0.4111382
63	0xbea9a2e3	-0.33132085
64	0xbec47f3f	-0.3837833
65	0xbdf9ef2e	-0.12203823
66	0xbef51e8b	-0.47874865
67	0xbeb18c80	-0.34677505
68	0xbe8a6ca3	-0.27036008
69	0xbec5340a	-0.38516265
70	0xbea258ec	-0.31708467
71	0xbe1132f5	-0.14179595
72	0xbe78ae6e	-0.2428529
73	0xbeba9b53	-0.36446628
74	0xbe6a0644	-0.22853953
75	0xbe3b5625	-0.1829458
76	0xbe6ec7aa	-0.23318353
77	0xbdf803bf	-0.121100895
78	0xbe8c65a2	-0.2742129
79	0xbe5f0b7e	-0.21781728
80	0xbebd9147	-0.370249
81	0xbef30050	-0.47461176
82	0xbe2e0883	-0.16995434
83	0xbe995d59	-0.2995403
84	0xbf151dc9	-0.58248574
85	0x3e3c819b	0.18408816
86	0xbe977c02	-0.29586798
87	0xbe7876a1	-0.24264003
88	0xbe9af07c	-0.302616
89	0xbe96df77	-0.29467365
90	0xbe95ffc6	-0.29296702
91	0xbe56d3d0	-0.20979238
92	0xbf113772	-0.5672523
93	0xbe5bb4ba	-0.2145566
94	0x3e4d2999	0.200354
95	0xbe18125c	-0.14850754
96	0xbd702771	-0.058631364
97	0xbdd733a2	-0.10507895
98	0xbe8b2dab	-0.2718328
99	0xbe872cb4	-0.26401293
100	0xbea2095c	-0.31647766
101	0xbf00a384	-0.50249505
102	0xbe0e4905	-0.13895042
103	0xbe4050cc	-0.18780822
104	0xbe60ff4c	-0.21972388
105	0xbe1fb884	-0.15597731
106	0xbdd8ab9a	-0.105796054
107	0xbe72384c	-0.23654288
108	0xbe3f3a8f	-0.18674682
109	0xbe4a2c0b	-0.19743364
110	0xbea5fb9d	-0.32418528
111	0x3d17dd4f	0.03707629
112	0xbe9adb15	-0.3024527
113	0xbbfc86a2	-0.007706479
114	0xbe49f020	-0.19720507
115	0xbf0d9166	-0.55299985
116	0xbe9bf70a	-0.30461913
117	0xbe72f8ba	-0.23727694
118	0xbed411fb	-0.41419968
119	0xbe3fb376	-0.18720803
120	0xbea0e979	-0.31428126
121	0xbe757e96	-0.2397407
122	0xbea9bb2b	-0.3315061
123	0xbe104692	-0.1408942
124	0xbecb9dd8	-0.39768863
125	0xbe659b71	-0.22422577
126	0xbd8fc846	-0.07020621
127	0xbe89063f	-0.26762578
128	0xbdb096aa	-0.08622487
129	0xbe917a8e	-0.28413814
130	0xbe02b1ed	-0.12763186
131	0xbe2f83c1	-0.17140104
132	0x3e95f737	0.29290172
133	0xbdaf34a0	-0.08554959
134	0xbe836591	-0.25663427
135	0xbeb6f298	-0.3573196
136	0xbe50f532	-0.20406035
137	0xbddad415	-0.10684983
138	0xbdfeb645	-0.12437109
139	0x3dfa9f0f	0.12237369
140	0x3daa980b	0.08329781
141	0x3b3badca	0.0028637522
142	0x3d20706a	0.039169706
143	0x3cee0f1e	0.029059943
144	0xbe84971a	-0.2589653
145	0xbe9397e4	-0.2882682
146	0x3d0f2c06	0.034954093
147	0xbea19efc	-0.31566608
148	0x3d35bc97	0.044369306
149	0xbe958a71	-0.29207185
150	0xbddb2ed4	-0.10702291
151	0xbefdf9be	-0.496046
152	0xbeb3cc70	-0.3511691
153	0xbe2192c9	-0.1577865
154	0xbdca8f43	-0.09890606
155	0xbe5455f5	-0.20735915
156	0xbe3d5855	-0.18490727
157	0x3e1ce283	0.15320782
158	0xbe82f8f0	-0.2558055
159	0x3f3839db	0.7196328
160	0xbdfb6ec8	-0.12276989
161	0xbd067799	-0.0328289
162	0xbe06d3cc	-0.13166732
163	0xbceb66c4	-0.028735526
164	0xbe3c6f8b	-0.18401925
165	0xbeecf95a	-0.4628399
166	0xbec16641	-0.37773326
167	0x3c2d0bad	0.010561866
168	0xbd5042b0	-0.05084485
169	0xbe4e89ba	-0.20169726
170	0xbe2080ac	-0.15674084
171	0xbec3e8d4	-0.3826357
172	0xbe36e53d	-0.17860885
173	0xbea75bd6	-0.32687253
174	0xbe00c7d5	-0.1257623
175	0xbdf8f3f8	-0.12155908
176	0xbe83f29d	-0.25771037
177	0x3d9f0192	0.077639714
178	0x3e7c9474	0.24666005
179	0xbe30772b	-0.17232959
180	0x3e5c6135	0.21521457
181	0x3df953d4	0.12174192
182	0xbeb3d48e	-0.35123104
183	0x3e008572	0.12550905
184	0x3e2af2d0	0.16694188
185	0xbe301f54	-0.1719945
186	0x3a826a1c	0.0009949836
187	0x3e313935	0.17306979
188	0xbdca93b6	-0.09891455
189	0x3e83419c	0.25635993
190	0xbdcbbdcb	-0.099483095
191	0xbda78cc1	-0.081811436
192	0xbe7715ed	-0.24129458
193	0x3e26de23	0.16295676
194	0xbe8d85be	-0.276411
195	0xbe94a82f	-0.29034564
196	0x3e700f26	0.23443279
197	0xbe4396ab	-0.19100444
198	0x3d927db9	0.07152886
199	0x3d62d77b	0.05538128
200	0xbe9479b8	-0.28999114
201	0xbd2128a1	-0.039345387
202	0xbe42287b	-0.18960755
203	0x3e0fb4ca	0.1403381
204	0x3cbeafa3	0.02327711
205	0x3d1402ca	0.036135472
206	0xbdd7a488	-0.10529429
207	0xbddd851d	-0.10816405
208	0xbe971dee	-0.29515022
209	0xbe96c076	-0.2944371
210	0x3e4616bc	0.1934461
211	0xbe1f9ff8	-0.15588367
212	0xbed60876	-0.4180333
213	0x3e7f3198	0.24921262
214	0xbd763aa8	-0.060114533
215	0xbe27cfde	-0.16387889
216	0xbc5cbf9c	-0.013473418
217	0x3cf51d91	0.029921325
218	0x3cda5bc5	0.026655087
219	0xbe28d464	-0.1648727
220	0xbed8f6e2	-0.42375857
221	0xbd850214	-0.06494537
222	0x3f037975	0.51357204
223	0x3e3892fa	0.18024817
224	0x3d5576d9	0.052115295
225	0x3d38c1d7	0.045106735
226	0xbe3db63a	-0.18526545
227	0xbe09f3d8	-0.13471925
228	0xbe21d8b6	-0.15805325
229	0xbebcbfb6	-0.36865014
230	0xbd90f83f	-0.07078599
231	0x3d2b47c0	0.041816473
232	0x3d22ad5c	0.03971611
233	0xbd8cd5b9	-0.06876702
234	0x3ee093f4	0.4386288
235	0x3e170bcd	0.14750595
236	0x3e1f8b58	0.15580499
237	0xbda4995a	-0.08037062
238	0xbdaca45d	-0.08429787
239	0x3efaab28	0.48958707
240	0xbdbb4a8d	-0.09145079
241	0x3e408892	0.18802097
242	0x3e923046	0.28552455
243	0xbef37f4a	-0.4755805
244	0x3dc2830b	0.09497651
245	0x3e1a5325	0.1507078
246	0xbe33aba9	-0.17545952
247	0x3e04b7f6	0.129608
248	0x3d9669c9	0.07344396
249	0xbe3070a5	-0.1723047
250	0xbe7f561c	-0.24935192
251	0x3dc0c5a6	0.094126984
252	0xbebc35da	-0.36759835
253	0x3e110747	0.14162932
254	0x3d985906	0.07438855
255	0xbd503ffb	-0.050842267

weight f4 [256, 128]
0	0xbeefe340	-0.46853065
1	0x3e91e901	0.2849808
2	0xbd6a7bd2	-0.05724699
3	0x3d69b0bf	0.057053324
4	0xbc27e876	-0.010248294
5	0x3e361c4d	0.17784233
6	0x3e35a020	0.17736864
7	0xbd94c6c8	-0.07264477
8	0x3d3d20de	0.046173923
9	0xbe1313fe	-0.14363095
10	0x3dd5911d	0.10428069
11	0x3c6db6c2	0.014508905
12	0x3c8f0dd6	0.017462652
13	0x3db5d473	0.08878412
14	0x3e87d173	0.26526985
15	0xbe2e3f8c	-0.17016429
16	0x3c597205	0.013271813
17	0xbe1e4f51	-0.15459944
18	0xbe3eac14	-0.1862033
19	0xbddbd9c5	-0.107348956
20	0xbea9fc44	-0.33200276
21	0x3c647ca1	0.0139457295
22	0xbe958ec3	-0.2921048
23	0xbd4a1a52	-0.049341507
24	0xbdf17e2a	-0.11791642
25	0x3d05ab1c	0.032633886
26	0xbcf9e3cb	-0.030504128
27	0xbe5541e7	-0.20825921
28	0xbcc7c82d	-0.024387443
29	0xbe415dc4	-0.18883425
30	0xbd3b1a49	-0.045679364
31	0xbdffc723	-0.12489154
32	0x3e6d017d	0.23145099
33	0x3dc2f2c3	0.095189594
34	0xbe260080	-0.16211128
35	0x3c64ba73	0.013960469
36	0xbe9039e1	-0.28169158
37	0x3c1aff45	0.009460275
38	0x3d5be4e5	0.053685088
39	0xbe6de06f	-0.23230146
40	0x3bb92436	0.0056500686
41	0x3e81fb96	0.25387257
42	0xbd496dc7	-0.049176957
43	0x3da0b991	0.07847894
44	0xbe84808e	-0.2587933
45	0xbc8560f2	-0.016281579
46	0xbe027ee2	-0.12743714
47	0x3e02dfdf	0.12780713
48	0xbdea35c5	-0.11436037
49	0x3e168ced	0.14702196
50	0x3e75248b	0.23939721
51	0xbdc7a76b	-0.09748729
52	0x3f02bad0	0.51066303
53	0xbe1666be	-0.1468763
54	0x3d82d95c	0.06389114
55	0x3d248013	0.040161204
56	0x3ec90e2a	0.3926862
57	0x3c458b4a	0.012057135
58	0xbe15b1e9	-0.14618649
59	0x3e0bd38d	0.13654919
60	0xbe1c4d19	-0.15263785
61	0x3d653b1d	0.055964578
62	0x3e529c89	0.20567526
63	0xbc25d425	-0.01012138
64	0x3df316d5	0.11869589
65	0x3dc35d41	0.09539271
66	0x3e35cdba	0.1775426
67	0xbd568f90	-0.052383006
68	0x3db6686e	0.08906637
69	0x3cfea6f7	0.031085474
70	0xbcb1d3cf	-0.021707444
71	0xbe021774	-0.12704259
72	0x3d5c4a91	0.05378205
73	0xbea1f9f4	-0.31636012
74	0xbe3aea02	-0.1825333
75	0x3b8a4ebb	0.004220811
76	0x3db38ea9	0.08767445
77	0xbd7adeca	-0.061247624
78	0xbd1509f8	-0.03638646
79	0x3ce74ac5	0.028233895
80	0x3d118e27	0.035535958
81	0xbdf67618	-0.12034243
82	0xbcac8edc	-0.021064214
83	0xbdce2e1f	-0.10067391
84	0x3e8a0500	0.2695694
85	0xbcc6df52	-0.02427641
86	0x3e3ca76e	0.18423244
87	0x3e6ace57	0.22930275
88	0x3c3c9f68	0.011512615
89	0xbd9e2b5b	-0.07723113
90	0x3d56ef9c	0.052474603
91	0x3e004e06	0.12529764
92	0x3cc9235c	0.024552993
93	0x3dbc1f92	0.09185709
94	0x3ea39a74	0.31953776
95	0x3eabc5c5	0.33549324
96	0x3d79470d	0.060858775
97	0x3e318050	0.17334104
98	0x3d3eccb9	0.046581957
99	0xbe96c33e	-0.29445833
100	0xbe022bdb	-0.12712042
101	0xbcc98134	-0.024597742
102	0x3cf5504a	0.029945511
103	0xbe46ef97	-0.19427334
104	0x3e062f58	0.13103998
105	0xbe9659fb	-0.29365525
106	0x3e549ab1	0.20762135
107	0x3e52b100	0.20575333
108	0x3ded62e2	0.11591126
109	0xbdac89f3	-0.08424749
110	0xbe7d377f	-0.24728201
111	0x3da45b02	0.08025171
112	0xbd5646e2	-0.052313693
113	0x3e167757	0.14693962
114	0xbe0ad750	-0.13558698
115	0xbce5aae5	-0.02803559
116	0xbe843adc	-0.25826156
117	0xbe9235ac	-0.28556573
118	0xbdebacd2	-0.11507572
119	0xbe2746f9	-0.16335668
120	0xbdbc62cc	-0.091985315
121	0xbda0abe7	-0.07845288
122	0xbd8e69d7	-0.06953781
123	0xbcde9ec2	-0.027175311
124	0xbdd67834	-0.10472146
125	0xbe023cb2	-0.12718466
126	0x3cdbf9c3	0.026852494
127	0xbe99d454	-0.30044806
128	0x3e66d9e2	0.22544053
129	0xbe95768f	-0.29192016
130	0xbdf33da7	-0.118769936
131	0xbc2d8db9	-0.010592871
132	0xbeb56ef0	-0.354362
133	0xbe553498	-0.20820844
134	0xbe677588	-0.22603428
135	0x3e0beba5	0.1366411
136	0xbddf2170	-0.108950496
137	0x3dec959c	0.11551973
138	0xbf0a3bba	-0.53997386
139	0x3dc40da5	0.09572915
140	0xbccce773	-0.025012707
141	0x3d3132d4	0.043261364
142	0xbe0da077	-0.13830744
143	0x3e09bd24	0.13451058
144	0xbd980f5c	-0.074248046
145	0x3e8a1d84	0.26975644
146	0x3dc5e6db	0.09663173
147	0x3db5bdb0	0.08874071
148	0x3e950e5e	0.29112524
149	0xbdd62db8	-0.10457939
150	0x3e287222	0.16449788
151	0x3df6bdc2	0.12047912
152	0xbd0a1ef8	-0.03372094
153	0xbcf821c8	-0.030289546
154	0xbc2e2459	-0.010628783
155	0x3dc6c2a3	0.09705093
156	0xbe0d2717	-0.13784443
157	0xbce1c4a9	-0.027559595
158	0x3d57c3aa	0.052676834
159	0xbd24ebc5	-0.04026391
160	0xbea20e8d	-0.31651726
161	0xbdf913c6	-0.121619746
162	0x3d19608b	0.037445586
163	0xbe3a916d	-0.18219538
164	0x3e12f050	0.14349484
165	0xbe574cb8	-0.2102536
166	0x3c8c61a9	0.017136412
167	0x3eaaf365	0.3338882
168	0x3e0f1791	0.13973834
169	0xbe9647dc	-0.293517
170	0x3df3bd0e	0.11901294
171	0x3e065210	0.13117242
172	0x3e44f03e	0.1923227
173	0xbd043002	-0.032272346
174	0xbc92d93f	-0.017925857
175	0xbd78ea48	-0.060770303
176	0x3db83c60	0.089958906
177	0xbeb59f75	-0.3547322
178	0xbea5d102	-0.32386023
179	0x3d74fb7e	0.059810154
180	0xbede90dd	-0.43469897
181	0x3e53795e	0.20651767
182	0xbda7aa34	-0.081867605
183	0x3d3c5722	0.045981534
184	0xbe807d98	-0.2509582
185	0xbd0aa799	-0.03385124
186	0x3e43dfda	0.19128361
187	0xbe1990cb	-0.1499664
188	0x3e3d30c8	0.1847564
189	0xbdc77e27	-0.097408585
190	0xbdc35e49	-0.09539468
191	0xbd532a17	-0.051553812
192	0x3d1704b2	0.036869712
193	0x3d391f0b	0.04519562
194	0xbd978d25	-0.07399968
195	0x3d70808d	0.058716346
196	0xbd111556	-0.03542074
197	0xbd1968f8	-0.03745362
198	0xbe06d68e	-0.13167784
199	0xbca31546	-0.019907605
200	0xbe171fb4	-0.14758188
201	0x3e1c0761	0.1523719
202	0x3e29d33f	0.1658449
203	0x3dbcdec0	0.09222174
204	0xbe09beb8	-0.1345166
205	0x3e307b11	0.17234446
206	0x3dbafed5	0.091306366
207	0xbe6d0384	-0.23145872
208	0x3d3121a2	0.043244965
209	0x3d010154	0.031495407
210	0xbd09c6dd	-0.033636916
211	0xbc91a1ea	-0.017777402
212	0x3d6d9548	0.058003694
213	0x3dc5f39e	0.09665607
214	0xbe396810	-0.18106103
215	0xbe8725e1	-0.26396087
216	0x3b9685a8	0.00459357
217	0x3dbd9df2	0.09258641
218	0x3dc5e545	0.0966287
219	0xbdc30f6a	-0.095244244
220	0xbe20dad5	-0.15708478
221	0xbe2438ce	-0.16037294
222	0xbe849e0a	-0.25901824
223	0xbe188575	-0.1489466
224	0xbd8b4eaf	-0.06802117
225	0xbcc1895d	-0.02362507
226	0xbdacbd63	-0.0843456
227	0x3e631bdb	0.22178595
228	0x3d2a1d6c	0.041531965
229	0x3c90589c	0.017620377
230	0x3d09788b	0.033562224
231	0x3e060333	0.13087158
232	0xbd945dc8	-0.0724445
233	0x3ea6e7e9	0.32598808
234	0xbe51572e	-0.20443413
235	0xbda70d9a	-0.08156891
236	0xbd905847	-0.070480876
237	0x3e91583e	0.28387636
238	0x3eb22196	0.3479125
239	0xbee75114	-0.45179045
240	0x3e415859	0.18881358
241	0xbda05b39	-0.07829899
242	0x3c9eefcb	0.019401452
243	0xbca915c8	-0.020640269
244	0x3d84aa2c	0.0647777
245	0x3e8d808c	0.27637136
246	0x3d2a492a	0.04157368
247	0xbdc9f4a4	-0.098611146
248	0x3c217bee	0.009856207
249	0x3dc3c685	0.09559349
250	0x3e364679	0.1780032
251	0x3e49827d	0.19678684
252	0x3a50fe6d	0.00079724827
253	0x3d35e362	0.044406302
254	0x3e02c589	0.12770666
255	0xbdeb627f	-0.11493396

bias f4 [256]
0	0x3d7a60b4	0.06112738
1	0x3be46014	0.006969461
2	0x3d88fca0	0.066888094
3	0x3e28a398	0.16468656
4	0xbd4b1298	-0.04957828
5	0xbe600de7	-0.21880303
6	0x3d13c3ab	0.036075275
7	0x3da6bbc2	0.08141281
8	0xbd7f0483	-0.062260162
9	0xbd68a108	-0.056794196
10	0xbd214770	-0.03937477
11	0xbd810a54	-0.06300798
12	0xbcc9c650	-0.024630696
13	0xbcd6cc4d	-0.026220465
14	0xbe4b041b	-0.19825785
15	0xbd99d0e7	-0.07510548
16	0xbde4ebc8	-0.11177784
17	0x3de8ab31	0.11360777
18	0x3d74d15b	0.05976997
19	0x3d29d79a	0.04146538
20	0xbe08a8fc	-0.13345712
21	0x3c9a459a	0.018832017
22	0xbe3ae354	-0.18250781
23	0xbd69156c	-0.056905195
24	0x3e0c2cff	0.1368904
25	0xbd62da3a	-0.0553839
26	0xbdb1869b	-0.08668252
27	0x3dd640c3	0.10461571
28	0x3c31119a	0.010807419
29	0x3d189b77	0.037257638
30	0x3e101732	0.14071348
31	0xbca6ffa4	-0.02038557
32	0x3e1029c3	0.14078431
33	0xbde862bd	-0.11346958
34	0xbcc37815	-0.02386097
35	0xbdfa4760	-0.12220645
36	0xba3f3530	-0.00072939973
37	0x3e13c7fb	0.14431755
38	0x3c4a04f1	0.01233028
39	0x3e0d4ecb	0.13799588
40	0xbe4484a3	-0.19191222
41	0x3e0cfb41	0.13767721
42	0x3e213d40	0.15746021
43	0x3d2fccbd	0.042919863
44	0xbe01e664	-0.12685543
45	0x3d4cb83d	0.04998039
46	0x3d9adddf	0.0756185
47	0xbbe0f035	-0.0068645724
48	0x3de32db4	0.110927016
49	0xbe0ee723	-0.13955359
50	0xbddbcfa8	-0.10732967
51	0xbd526bdc	-0.051372394
52	0x3de1bdfc	0.11022565
53	0x3d350b7f	0.044200417
54	0x3e0b6365	0.13612135
55	0xbdd4676c	-0.10371289
56	0xbe1a4ef1	-0.15069176
57	0x3e3d3a44	0.18479258
58	0x3cd98a46	0.026555192
59	0x3e291f53	0.16515855
60	0xbd6eb1ca	-0.05827502
61	0xbca729e5	-0.020405719
62	0xbdf95b4a	-0.12175615
63	0x3dab0b7c	0.083518
64	0xbdd85d41	-0.10564662
65	0xbd9ecc31	-0.0775379
66	0xbe23cb4d	-0.15995522
67	0xbe17c8f9	-0.14822759
68	0x3dd3341c	0.103126734
69	0x3e16dc0a	0.14732376
70	0xbde95f2a	-0.11395104
71	0x3c530ff4	0.0128822215
72	0xbdcdab82	-0.10042478
73	0x3d4b6bbb	0.049663287
74	0xbdaffa3d	-0.08592651
75	0xbce8d3d9	-0.02842133
76	0x3ba65ff0	0.0050773546
77	0xbdc9d443	-0.09854939
78	0x3d9b1b7e	0.07573603
79	0x3e208ffd	0.15679927
80	0x3da20362	0.079108015
81	0x3d031799	0.032004926
82	0xbd812582	-0.06305982
83	0xbd27a3ea	-0.040927805
84	0xba87a393	-0.0010348432
85	0x3ca02bd7	0.019552154
86	0xbd60c014	-0.05487068
87	0x3e1d1b7a	0.15342513
88	0xbcb6c39c	-0.02231007
89	0x3bba2f53	0.005681911
90	0x3e003235	0.12519152
91	0xbcff8850	-0.031192929
92	0xbd38b126	-0.045090817
93	0xbd975a56	-0.07390277
94	0xbd803306	-0.06259732
95	0x3d870d5d	0.06594346
96	0xbe0b5e61	-0.13610221
97	0x3c3c27af	0.011484071
98	0x3dc08306	0.09399991
99	0x3e3f8a62	0.18705133
100	0xbd043180	-0.03227377
101	0x3e1c9547	0.1529132
102	0xbc098b19	-0.00839498
103	0xbe01a66d	-0.12661143
104	0xbe3142e3	-0.17310672
105	0x3da489fd	0.08034132
106	0x3cc6f2d9	0.02428572
107	0xbe2de5f4	-0.16982251
108	0xbdc5c447	-0.096565776
109	0x3cbf32fa	0.023339737
110	0xbcd9350b	-0.02651455
111	0xbdae03b7	-0.08496802
112	0xbd1a2bbd	-0.03763937
113	0x3c132304	0.008980516
114	0x3c03d882	0.008047225
115	0x3c700297	0.014649055
116	0xbdac6620	-0.08417916
117	0x3d472ce6	0.048626803
118	0xbdec6600	-0.115428925
119	0xbc2a1307	-0.010380513
120	0xbdbf05aa	-0.09327252
121	0xbdfa7f06	-0.12231259
122	0xbdcb0d89	-0.09914691
123	0x3e2a7e3c	0.16649717
124	0x3e261164	0.16217571
125	0x3e12e276	0.143442
126	0x3d61eeb0	0.05515927
127	0x3d58c95b	0.052926403
128	0x3e06c39d	0.13160558
129	0xbd1ec586	-0.03876259
130	0x3d03bc56	0.032162033
131	0x3dae44e0	0.085092306
132	0xbd744180	-0.05963278
133	0x3dc62551	0.09675086
134	0xbd4cdd93	-0.050015997
135	0xbe3026e1	-0.17202331
136	0x3dc5ae74	0.09652415
137	0xbe2d9b9e	-0.16953894
138	0x3c9a8322	0.018861357
139	0xbdf892d4	-0.1213738
140	0x3df24ba7	0.11830836
141	0xbd84cbf9	-0.06484217
142	0xbe6cc2db	-0.23121206
143	0x3cf0455b	0.029329946
144	0x3ddbc69f	0.10731243
145	0x3dba1f78	0.090880334
146	0x3e4f07df	0.20217846
147	0x3d1cda96	0.038294397
148	0xbc5d1e6a	-0.013496021
149	0xbdc6dd5d	-0.097101904
150	0x3d4b2c8b	0.049603026
151	0x3e077559	0.13228358
152	0x3cca80cb	0.024719616
153	0x3cd4f47b	0.025995484
154	0xbdba0c69	-0.09084398
155	0xbd96189a	-0.07328911
156	0x3db1c973	0.086810015
157	0xbd32e140	-0.043671846
158	0x3e57f555	0.2108968
159	0x3cdd92cc	0.027047537
160	0x3e30788c	0.17233485
161	0xbdeed070	-0.1166085
162	0x3e0c0e70	0.13677382
163	0x3c96d9e3	0.018414443
164	0x3e629b39	0.22129525
165	0xbe243763	-0.16036753
166	0x3db4aeb6	0.08822386
167	0xbd2a03f3	-0.041507673
168	0x3b74f36c	0.0037376536
169	0x3d926644	0.07148412
170	0x3da72e37	0.08163112
171	0x3dc56d14	0.096399456
172	0xbc008e10	-0.00784637
173	0xbd6de63d	-0.0580809
174	0xbdceaa18	-0.100910366
175	0xbcb9a66e	-0.022662368
176	0xbd704e53	-0.058668446
177	0x3defbd5e	0.11706041
178	0x3cc0866c	0.023501597
179	0x3bda662a	0.006665011
180	0x3d3dd429	0.04634491
181	0xbe223539	-0.15840615
182	0xbabe7aff	-0.0014532505
183	0x3dfc48fc	0.12318608
184	0x3dea2925	0.11433629
185	0xbd811ace	-0.06303941
186	0xbcd8cfd7	-0.026466293
187	0xbced2c58	-0.028951809
188	0xbbf9ef73	-0.0076274215
189	0xbc884021	-0.016632142
190	0x3e07eba2	0.1327348
191	0x3df3c4b1	0.1190275
192	0xbdf2e4ed	-0.118600704
193	0x3e3dbe73	0.18529682
194	0x3da93330	0.08261716
195	0xbbc0b4e1	-0.0058809374
196	0x3d3a8ceb	0.045544546
197	0xbdfa00ce	-0.12207185
198	0xbdfdf7d8	-0.12400788
199	0xbd8e31b2	-0.069430724
200	0xbd16f624	-0.03685583
201	0xbd36a6ea	-0.044592775
202	0xbcfa718b	-0.03057172
203	0xbd96c829	-0.07362396
204	0xbd559eff	-0.052153584
205	0xbdd64f96	-0.104643986
206	0xbc5212ad	-0.0128218355
207	0x3cf9a638	0.030474767
208	0xbc92c578	-0.017916426
209	0xbd244cc8	-0.040112287
210	0xbe403f2d	-0.187741
211	0x3d71503e	0.058914416
212	0x3d8dcef8	0.06924242
213	0x3d777d9c	0.060422525
214	0x3d3011cf	0.042985734
215	0x3d2e46b6	0.042547904
216	0x3cbc22cc	0.022965811
217	0x3bdd750b	0.0067583374
218	0xbc9df4f4	-0.019281842
219	0xbd394d46	-0.04523971
220	0xbdd097eb	-0.10185226
221	0xbc281e69	-0.010261157
222	0x3de24507	0.11048322
223	0xbbe5dea1	-0.007015065
224	0xbcc2a01d	-0.023757989
225	0xbded5b91	-0.115897305
226	0x3c4d970b	0.0125482185
227	0xbd268b82	-0.04066039
228	0xbdb32716	-0.087476894
229	0x3cb00f3b	0.021491637
230	0xbd805fda	-0.06268282
231	0xbd44214a	-0.04788331
232	0xbdf3be97	-0.119015865
233	0x3e39764c	0.18111533
234	0xbd948cca	-0.07253416
235	0xbd9a6d38	-0.07540363
236	0x3e365795	0.17806847
237	0x3d09750e	0.033558898
238	0x3d557780	0.052115917
239	0x3e0212de	0.1270251
240	0xbd51a144	-0.051179186
241	0xbcb42482	-0.021990065
242	0xbd33fb9b	-0.04394112
243	0x3c51554a	0.012776682
244	0xbc1c1fa7	-0.009529031
245	0x3e08ddef	0.13365911
246	0xbd16804f	-0.03674346
247	0xbdb12dc0	-0.08651304
248	0x3d144c7c	0.036205754
249	0x3dac3ad3	0.08409657
250	0x3d86bfe8	0.06579572
251	0xbd0cc14e	-0.034364037
252	0xbc948563	-0.01813001
253	0xbd8848f6	-0.06654541
254	0xbcc23077	-0.02370475
255	0x3d481430	0.048847377

weight f4 [128, 256]
0	0x3dbcdb44	0.09221509
1	0xbcf1723a	-0.029473413
2	0x3cf1151b	0.02942901
3	0x3dcd3f6c	0.100218624
4	0x3cf2c32e	0.029634085
5	0xbddd6b3c	-0.10811469
6	0x3e2270ba	0.15863314
7	0x3b6059bb	0.003423317
8	0xbd8175a7	-0.063212685
9	0xbd180d2b	-0.037121933
10	0xbca74317	-0.020417733
11	0xbc858e45	-0.016303191
12	0xbbe5c899	-0.0070124385
13	0xbcffa9f1	-0.031208964
14	0xbe0299d9	-0.12754
15	0xb89466f3	-7.076366e-05
16	0x3d396850	0.045265496
17	0xbb19b7f3	-0.002345559
18	0x3c4a32c6	0.012341207
19	0x3c9ff04e	0.019523766
20	0xbe64292b	-0.2228133
21	0xbc48e1d1	-0.01226087
22	0xbe2e765a	-0.17037335
23	0x3cac628f	0.02104309
24	0xbe1a7829	-0.150849
25	0xbe0cb29a	-0.13740006
26	0xbe3baff9	-0.18328847
27	0x3d1be8e9	0.038063917
28	0x3d9c07b3	0.07618656
29	0xbd66500b	-0.05622868
30	0xbc790948	-0.015199967
31	0x3bea83fe	0.007156848
32	0xbdab6f32	-0.08370818
33	0xbe53e8a7	-0.20694219
34	0x3d945a75	0.07243816
35	0xbe181fa2	-0.14855817
36	0x3c46354c	0.012097668
37	0x3d349530	0.04408759
38	0x3d8ee164	0.069765836
39	0x3e0f1357	0.13972221
40	0xbe04db9e	-0.12974402
41	0x3e427b52	0.18992355
42	0x3de9389a	0.11387749
43	0x3d007f7f	0.03137159
44	0x3da675d9	0.081279464
45	0x3ca6dcb2	0.020368908
46	0x3bbcc34f	0.0057605873
47	0x3e12133d	0.14265151
48	0xbd009881	-0.03139544
49	0xbe0a66bf	-0.13515757
50	0xbe193871	-0.14962937
51	0xbd930911	-0.07179464
52	0x3e617356	0.22016653
53	0x3e5e694a	0.21719852
54	0x3dab2657	0.08356922
55	0xbd3b8f78	-0.04579112
56	0xbdb0a9c6	-0.08626132
57	0x3e401892	0.18759373
58	0x3e09d5da	0.13460484
59	0x3e285fc8	0.16442788
60	0x3cbe01b3	0.02319417
61	0x3ca2a8b5	0.019855836
62	0xbe1250f6	-0.14288697
63	0x3d301b30	0.042994678
64	0xbdc644c0	-0.09681082
65	0xbd2530db	-0.040329795
66	0xbe7bf05f	-0.24603413
67	0x3de70969	0.11281092
68	0x3c55fb56	0.013060411
69	0x3cbad292	0.022805486
70	0xbd3e2686	-0.046423458
71	0x3d5f4ae1	0.05451477
72	0x3dc201ee	0.09473024
73	0x3d40242a	0.04690949
74	0x3e3dcfb8	0.1853627
75	0x3b3b430d	0.00285739
76	0x3d2cbf30	0.042174518
77	0x3de20194	0.11035457
78	0xbdb86af7	-0.09004777
79	0x3e10b83a	0.14132777
80	0x3c768e82	0.015048625
81	0x3dc2e7f0	0.09516895
82	0xbdbc1dfd	-0.09185407
83	0x3d9869a2	0.07442023
84	0x3db81255	0.089878716
85	0xbda7d030	-0.081940055
86	0xbcc566c5	-0.024096856
87	0x3e7f7730	0.2494781
88	0x3db05af0	0.08611095
89	0xbd51e2ee	-0.051241808
90	0x3d5a2cde	0.053265445
91	0x3bff8090	0.0077973083
92	0x3da941aa	0.082644776
93	0x3c496c18	0.012293838
94	0x3c90c077	0.0176699
95	0xbc064c75	-0.00819694
96	0xbe2ec6d5	-0.17068036
97	0xbdfe196b	-0.12407192
98	0x3d494031	0.049133483
99	0x3e487438	0.19575584
100	0x3be24288	0.006904904
101	0x3e0b9192	0.1362975
102	0x3d2b62aa	0.04184214
103	0xbe4a251b	-0.19740717
104	0xbe2e3424	-0.17012078
105	0xbd50acb6	-0.05094596
106	0x3ccecfba	0.025245536
107	0xbd1c9833	-0.038231086
108	0xbb8f4314	-0.00437201
109	0x3d45e854	0.04831727
110	0x3d7a9505	0.061177272
111	0xbd6568a8	-0.05600801
112	0x3bc91627	0.006136674
113	0xbd0132da	-0.031542636
114	0x3db62aeb	0.08894905
115	0xbcc1e770	-0.023669928
116	0x3cb7e228	0.022446707
117	0xbd10db54	-0.035365418
118	0x3de56b52	0.1120211
119	0xbd279470	-0.040913045
120	0xbe5bc507	-0.21461879
121	0xbe2400c2	-0.16015914
122	0x3d686adf	0.056742545
123	0x3e0f4085	0.13989456
124	0xbc87ff55	-0.016601244
125	0x3b66390f	0.0035129224
126	0xbcf307ec	-0.029666863
127	0x3d9d4229	0.07678635
128	0x3de033cd	0.1094738
129	0x3d990911	0.074724324
130	0x3e21ed83	0.1581326
131	0xbdc3691e	-0.09541534
132	0xbdad264c	-0.0845457
133	0x3ce56563	0.028002447
134	0x3c2df8a0	0.010618359
135	0x3bb3c4ab	0.005486091
136	0xbd98ecb7	-0.07467025
137	0xbdc5b086	-0.0965281
138	0xbdfe53aa	-0.124183014
139	0xbdbe2d33	-0.09285965
140	0xbccb1693	-0.024791038
141	0xbe1ae4b2	-0.15126303
142	0xbe09feb0	-0.13476062
143	0xbdb5d00a	-0.08877571
144	0x3d8bd9f2	0.06828679
145	0xbd3a98de	-0.04555594
146	0x3de0f242	0.10983707
147	0x3e0a6c13	0.1351779
148	0x3b473d29	0.0030401445
149	0xbda72906	-0.081621215
150	0xbd211bc7	-0.03933313
151	0x3bcf95b9	0.006334987
152	0x3d9a40f5	0.07531921
153	0xbb0fb398	-0.0021927115
154	0xbdf0bcc4	-0.11754754
155	0x3b56e8b7	0.0032792517
156	0x3d4b73f0	0.049671113
157	0x3db73f2f	0.08947598
158	0x3dcd8de6	0.100368306
159	0x3dc453fc	0.09586331
160	0xbb1dc8cb	-0.002407598
161	0x3c67c180	0.014145255
162	0x3d7acb84	0.061229244
163	0x3c96b3f0	0.018396348
164	0x3e20d379	0.1570567
165	0x3cf4d935	0.029888729
166	0x3e021998	0.12705076
167	0xbe1d3eff	-0.15356062
168	0xbc8f1058	-0.017463848
169	0x3e012257	0.12610756
170	0x3d4c260e	0.04984098
171	0xbcc317da	-0.023815084
172	0xbda2f795	-0.07957379
173	0xbd2258ed	-0.039635587
174	0x3b876a8a	0.0041325735
175	0x3c495dbd	0.012290415
176	0x3d91a448	0.07111412
177	0x3dc645f0	0.09681308
178	0xbc849f70	-0.016189307
179	0x3d428e9e	0.04749929
180	0x3de466ad	0.11152396
181	0xbe87e33b	-0.2654055
182	0x3d8bbff7	0.06823724
183	0x3e0a34de	0.1349673
184	0xbc095742	-0.00838262
185	0x3e157584	0.1459561
186	0xbc010baa	-0.007876316
187	0x3c7a3000	0.015270233
188	0xbc120448	-0.008912154
189	0x3dae05f2	0.08497228
190	0x3e2d51d8	0.16925752
191	0x3d6e7cc9	0.058224473
192	0xbcdcee50	-0.026969105
193	0x3e4ab50a	0.19795623
194	0x3c0497f3	0.008092868
195	0x3dda9ce2	0.10674454
196	0x3d27b17d	0.04094075
197	0x3da54e19	0.080715366
198	0xbdd53864	-0.10411146
199	0xbe5b60df	-0.21423672
200	0xbd0c1349	-0.03419808
201	0x3d7b624c	0.06137304
202	0xbd7115ee	-0.058858804
203	0xbd8ea240	-0.069645405
204	0xbb83d353	-0.0040229945
205	0xbdf84058	-0.121216476
206	0xbdc0c8d1	-0.09413303
207	0x3ce0f55c	0.027460746
208	0x3bfc209a	0.007694316
209	0xbc486ff6	-0.012233725
210	0xbe08629f	-0.13318871
211	0x3dc53ed6	0.09631126
212	0x3daff0aa	0.08590825
213	0x3d1a5d56	0.03768667
214	0xbda028a0	-0.078202486
215	0x3de504b4	0.11182538
216	0xbd8346d8	-0.06409997
217	0xbd0cbe84	-0.034361377
218	0x3bfd1d49	0.0077244383
219	0x3a15ddb0	0.0005716933
220	0xbe6deb87	-0.23234378
221	0x3c195788	0.009359248
222	0x3d79dd44	0.06100203
223	0x3c4b2984	0.012400035
224	0x3dcce567	0.100046925
225	0x3d831173	0.063998125
226	0xbd65df9b	-0.05612145
227	0xbe1b6f1f	-0.15179108
228	0x3dce7404	0.10080722
229	0x3e5c9f20	0.21545076
230	0xbdc007f4	-0.09376517
231	0x3db58bac	0.08864531
232	0x3cd9e69a	0.026599217
233	0x3e21b6e8	0.1579243
234	0xbcd242f9	-0.0256667
235	0x3d987753	0.07444634
236	0x3e2f666d	0.17128916
237	0xbd8d055f	-0.0688579
238	0xbdddcf45	-0.10830549
239	0x3cf6564a	0.030070443
240	0xbe59bac2	-0.21262649
241	0x3d869e75	0.06573192
242	0x3d21c15e	0.03949105
243	0xbca66463	-0.02031154
244	0x3e0a7863	0.13522486
245	0x3d4d023b	0.050050955
246	0x3c8ac787	0.016940845
247	0xbe11b220	-0.14228106
248	0xbd7182c3	-0.058962595
249	0xbd4267b4	-0.04746218
250	0x3e0fc242	0.14038947
251	0xbdbbc039	-0.09167523
252	0x3d0f9f9e	0.035064332
253	0x3d6d37be	0.057914488
254	0x3aa2097a	0.0012362443
255	0x3e294bfa	0.16532889
